…
  CHECKPOINT_DIR: "logs/test"

# Path to load a model
CHECKPOINT_PATH: ""
BATCH_SIZE: 3
PRECISION: 16 # Bit precision for mix precision training
NUM_CLASS: 19
MODEL_CUSTOM:
  BACKBONE:
    EFFICIENTNET_ID: 5 # Id of the EfficienNet model
    LOAD_PRETRAIN: True # Load pretrained EfficienNet model
INFERENCE:
  AREA_TRESH: 512 #1024 / 2 because it's made on image of resize size

<bound method LightningModule.print of EffificientPS(
  (backbone): EfficientNet(
    (_conv_stem): Conv2dStaticSamePadding(
      3, 48, kernel_size=(3, 3), stride=(2, 2), bias=False
      (static_padding): ZeroPad2d((0, 1, 0, 1))
    )
    (_bn0): BatchNorm2d(48, eps=0.001, momentum=0.1, affine=True, track_running_stats=True)
    (_blocks): ModuleList(
      (0): MBConvBlock(
        (_depthwise_conv): Conv2dStaticSamePadding(
          48, 48, kernel_size=(3, 3), stride=[1, 1], groups=48, bias=False
          (static_padding): ZeroPad2d((1, 1, 1, 1))
        )
        (_bn1): BatchNorm2d(2048, eps=0.001, momentum=0.1, affine=True, track_running_stats=True)
        (_se_reduce): Identity()
        (_se_expand): Identity()
        (_project_conv): Conv2dStaticSamePadding(
          48, 24, kernel_size=(1, 1), stride=(1, 1), bias=False
          (static_padding): Identity()
        )
        (_bn2): BatchNorm2d(24, eps=0.001, momentum=0.1, affine=True, track_running_stats=True)
        (_swish): Identity()
      )
      (1): MBConvBlock(
        (_depthwise_conv): Conv2dStaticSamePadding(
          24, 24, kernel_size=(3, 3), stride=(1, 1), groups=24, bias=False
          (static_padding): ZeroPad2d((1, 1, 1, 1))
        )
        (_bn1): BatchNorm2d(2048, eps=0.001, momentum=0.1, affine=True, track_running_stats=True)
        (_se_reduce): Identity()
        (_se_expand): Identity()
        (_project_conv): Conv2dStaticSamePadding(
          24, 24, kernel_size=(1, 1), stride=(1, 1), bias=False
          (static_padding): Identity()
        )
        (_bn2): BatchNorm2d(24, eps=0.001, momentum=0.1, affine=True, track_running_stats=True)
        (_swish): Identity()
      )
      (2): MBConvBlock(
        (_depthwise_conv): Conv2dStaticSamePadding(
          24, 24, kernel_size=(3, 3), stride=(1, 1), groups=24, bias=False
          (static_padding): ZeroPad2d((1, 1, 1, 1))
        )
        (_bn1): BatchNorm2d(2048, eps=0.001, momentum=0.1, affine=True, track_running_stats=True)
        (_se_reduce): Identity()
        (_se_expand): Identity()
        (_project_conv): Conv2dStaticSamePadding(
          24, 24, kernel_size=(1, 1), stride=(1, 1), bias=False
          (static_padding): Identity()
        )
        (_bn2): BatchNorm2d(24, eps=0.001, momentum=0.1, affine=True, track_running_stats=True)
        (_swish): Identity()
      )
      (3): MBConvBlock(
        (_expand_conv): Conv2dStaticSamePadding(
          24, 144, kernel_size=(1, 1), stride=(1, 1), bias=False
          (static_padding): Identity()
        )
        (_bn0): BatchNorm2d(48, eps=0.001, momentum=0.1, affine=True, track_running_stats=True)
        (_depthwise_conv): Conv2dStaticSamePadding(
          144, 144, kernel_size=(3, 3), stride=[2, 2], groups=144, bias=False
          (static_padding): ZeroPad2d((0, 1, 0, 1))
        )
        (_bn1): BatchNorm2d(2048, eps=0.001, momentum=0.1, affine=True, track_running_stats=True)
        (_se_reduce): Identity()
        (_se_expand): Identity()
        (_project_conv): Conv2dStaticSamePadding(
          144, 40, kernel_size=(1, 1), stride=(1, 1), bias=False
          (static_padding): Identity()
        )
        (_bn2): BatchNorm2d(40, eps=0.001, momentum=0.1, affine=True, track_running_stats=True)
        (_swish): Identity()
      )
      (4): MBConvBlock(
        (_expand_conv): Conv2dStaticSamePadding(
          40, 240, kernel_size=(1, 1), stride=(1, 1), bias=False
          (static_padding): Identity()
        )
        (_bn0): BatchNorm2d(48, eps=0.001, momentum=0.1, affine=True, track_running_stats=True)
        (_depthwise_conv): Conv2dStaticSamePadding(
          240, 240, kernel_size=(3, 3), stride=(1, 1), groups=240, bias=False
          (static_padding): ZeroPad2d((1, 1, 1, 1))
        )
        (_bn1): BatchNorm2d(2048, eps=0.001, momentum=0.1, affine=True, track_running_stats=True)
        (_se_reduce): Identity()
        (_se_expand): Identity()
        (_project_conv): Conv2dStaticSamePadding(
          240, 40, kernel_size=(1, 1), stride=(1, 1), bias=False
          (static_padding): Identity()
        )
        (_bn2): BatchNorm2d(40, eps=0.001, momentum=0.1, affine=True, track_running_stats=True)
        (_swish): Identity()
      )
      (5): MBConvBlock(
        (_expand_conv): Conv2dStaticSamePadding(
          40, 240, kernel_size=(1, 1), stride=(1, 1), bias=False
          (static_padding): Identity()
        )
        (_bn0): BatchNorm2d(48, eps=0.001, momentum=0.1, affine=True, track_running_stats=True)
        (_depthwise_conv): Conv2dStaticSamePadding(
          240, 240, kernel_size=(3, 3), stride=(1, 1), groups=240, bias=False
          (static_padding): ZeroPad2d((1, 1, 1, 1))
        )
        (_bn1): BatchNorm2d(2048, eps=0.001, momentum=0.1, affine=True, track_running_stats=True)
        (_se_reduce): Identity()
        (_se_expand): Identity()
        (_project_conv): Conv2dStaticSamePadding(
          240, 40, kernel_size=(1, 1), stride=(1, 1), bias=False
          (static_padding): Identity()
        )
        (_bn2): BatchNorm2d(40, eps=0.001, momentum=0.1, affine=True, track_running_stats=True)
        (_swish): Identity()
      )
      (6): MBConvBlock(
        (_expand_conv): Conv2dStaticSamePadding(
          40, 240, kernel_size=(1, 1), stride=(1, 1), bias=False
          (static_padding): Identity()
        )
        (_bn0): BatchNorm2d(48, eps=0.001, momentum=0.1, affine=True, track_running_stats=True)
        (_depthwise_conv): Conv2dStaticSamePadding(
          240, 240, kernel_size=(3, 3), stride=(1, 1), groups=240, bias=False
          (static_padding): ZeroPad2d((1, 1, 1, 1))
        )
        (_bn1): BatchNorm2d(2048, eps=0.001, momentum=0.1, affine=True, track_running_stats=True)
        (_se_reduce): Identity()
        (_se_expand): Identity()
        (_project_conv): Conv2dStaticSamePadding(
          240, 40, kernel_size=(1, 1), stride=(1, 1), bias=False
          (static_padding): Identity()
        )
        (_bn2): BatchNorm2d(40, eps=0.001, momentum=0.1, affine=True, track_running_stats=True)
        (_swish): Identity()
      )
      (7): MBConvBlock(
        (_expand_conv): Conv2dStaticSamePadding(
          40, 240, kernel_size=(1, 1), stride=(1, 1), bias=False
          (static_padding): Identity()
        )
        (_bn0): BatchNorm2d(48, eps=0.001, momentum=0.1, affine=True, track_running_stats=True)
        (_depthwise_conv): Conv2dStaticSamePadding(
          240, 240, kernel_size=(3, 3), stride=(1, 1), groups=240, bias=False
          (static_padding): ZeroPad2d((1, 1, 1, 1))
        )
        (_bn1): BatchNorm2d(2048, eps=0.001, momentum=0.1, affine=True, track_running_stats=True)
        (_se_reduce): Identity()
        (_se_expand): Identity()
        (_project_conv): Conv2dStaticSamePadding(
          240, 40, kernel_size=(1, 1), stride=(1, 1), bias=False
          (static_padding): Identity()
        )
        (_bn2): BatchNorm2d(40, eps=0.001, momentum=0.1, affine=True, track_running_stats=True)
        (_swish): Identity()
      )
      (8): MBConvBlock(
        (_expand_conv): Conv2dStaticSamePadding(
          40, 240, kernel_size=(1, 1), stride=(1, 1), bias=False
          (static_padding): Identity()
        )
        (_bn0): BatchNorm2d(48, eps=0.001, momentum=0.1, affine=True, track_running_stats=True)
        (_depthwise_conv): Conv2dStaticSamePadding(
          240, 240, kernel_size=(5, 5), stride=[2, 2], groups=240, bias=False
          (static_padding): ZeroPad2d((1, 2, 1, 2))
        )
        (_bn1): BatchNorm2d(2048, eps=0.001, momentum=0.1, affine=True, track_running_stats=True)
        (_se_reduce): Identity()
        (_se_expand): Identity()
        (_project_conv): Conv2dStaticSamePadding(
          240, 64, kernel_size=(1, 1), stride=(1, 1), bias=False
          (static_padding): Identity()
        )
        (_bn2): BatchNorm2d(64, eps=0.001, momentum=0.1, affine=True, track_running_stats=True)
        (_swish): Identity()
      )
      (9): MBConvBlock(
        (_expand_conv): Conv2dStaticSamePadding(
          64, 384, kernel_size=(1, 1), stride=(1, 1), bias=False
          (static_padding): Identity()
        )
        (_bn0): BatchNorm2d(48, eps=0.001, momentum=0.1, affine=True, track_running_stats=True)
        (_depthwise_conv): Conv2dStaticSamePadding(
          384, 384, kernel_size=(5, 5), stride=(1, 1), groups=384, bias=False
          (static_padding): ZeroPad2d((2, 2, 2, 2))
        )
        (_bn1): BatchNorm2d(2048, eps=0.001, momentum=0.1, affine=True, track_running_stats=True)
        (_se_reduce): Identity()
        (_se_expand): Identity()
        (_project_conv): Conv2dStaticSamePadding(
          384, 64, kernel_size=(1, 1), stride=(1, 1), bias=False
          (static_padding): Identity()
        )
        (_bn2): BatchNorm2d(64, eps=0.001, momentum=0.1, affine=True, track_running_stats=True)
        (_swish): Identity()
      )
      (10): MBConvBlock(
        (_expand_conv): Conv2dStaticSamePadding(
          64, 384, kernel_size=(1, 1), stride=(1, 1), bias=False
          (static_padding): Identity()
        )
        (_bn0): BatchNorm2d(48, eps=0.001, momentum=0.1, affine=True, track_running_stats=True)
        (_depthwise_conv): Conv2dStaticSamePadding(
          384, 384, kernel_size=(5, 5), stride=(1, 1), groups=384, bias=False
          (static_padding): ZeroPad2d((2, 2, 2, 2))
        )
        (_bn1): BatchNorm2d(2048, eps=0.001, momentum=0.1, affine=True, track_running_stats=True)
        (_se_reduce): Identity()
        (_se_expand): Identity()
        (_project_conv): Conv2dStaticSamePadding(
          384, 64, kernel_size=(1, 1), stride=(1, 1), bias=False
          (static_padding): Identity()
        )
        (_bn2): BatchNorm2d(64, eps=0.001, momentum=0.1, affine=True, track_running_stats=True)
        (_swish): Identity()
      )
      (11): MBConvBlock(
        (_expand_conv): Conv2dStaticSamePadding(
          64, 384, kernel_size=(1, 1), stride=(1, 1), bias=False
          (static_padding): Identity()
        )
        (_bn0): BatchNorm2d(48, eps=0.001, momentum=0.1, affine=True, track_running_stats=True)
        (_depthwise_conv): Conv2dStaticSamePadding(
          384, 384, kernel_size=(5, 5), stride=(1, 1), groups=384, bias=False
          (static_padding): ZeroPad2d((2, 2, 2, 2))
        )
        (_bn1): BatchNorm2d(2048, eps=0.001, momentum=0.1, affine=True, track_running_stats=True)
        (_se_reduce): Identity()
        (_se_expand): Identity()
        (_project_conv): Conv2dStaticSamePadding(
          384, 64, kernel_size=(1, 1), stride=(1, 1), bias=False
          (static_padding): Identity()
        )
        (_bn2): BatchNorm2d(64, eps=0.001, momentum=0.1, affine=True, track_running_stats=True)
        (_swish): Identity()
      )
      (12): MBConvBlock(
        (_expand_conv): Conv2dStaticSamePadding(
          64, 384, kernel_size=(1, 1), stride=(1, 1), bias=False
          (static_padding): Identity()
        )
        (_bn0): BatchNorm2d(48, eps=0.001, momentum=0.1, affine=True, track_running_stats=True)
        (_depthwise_conv): Conv2dStaticSamePadding(
          384, 384, kernel_size=(5, 5), stride=(1, 1), groups=384, bias=False
          (static_padding): ZeroPad2d((2, 2, 2, 2))
        )
        (_bn1): BatchNorm2d(2048, eps=0.001, momentum=0.1, affine=True, track_running_stats=True)
        (_se_reduce): Identity()
        (_se_expand): Identity()
        (_project_conv): Conv2dStaticSamePadding(
          384, 64, kernel_size=(1, 1), stride=(1, 1), bias=False
          (static_padding): Identity()
        )
        (_bn2): BatchNorm2d(64, eps=0.001, momentum=0.1, affine=True, track_running_stats=True)
        (_swish): Identity()
      )
      (13): MBConvBlock(
        (_expand_conv): Conv2dStaticSamePadding(
          64, 384, kernel_size=(1, 1), stride=(1, 1), bias=False
          (static_padding): Identity()
        )
        (_bn0): BatchNorm2d(48, eps=0.001, momentum=0.1, affine=True, track_running_stats=True)
        (_depthwise_conv): Conv2dStaticSamePadding(
          384, 384, kernel_size=(3, 3), stride=[2, 2], groups=384, bias=False
          (static_padding): ZeroPad2d((1, 1, 1, 1))
        )
        (_bn1): BatchNorm2d(2048, eps=0.001, momentum=0.1, affine=True, track_running_stats=True)
        (_se_reduce): Identity()
        (_se_expand): Identity()
        (_project_conv): Conv2dStaticSamePadding(
          384, 128, kernel_size=(1, 1), stride=(1, 1), bias=False
          (static_padding): Identity()
        )
        (_bn2): BatchNorm2d(128, eps=0.001, momentum=0.1, affine=True, track_running_stats=True)
        (_swish): Identity()
      )
      (14): MBConvBlock(
        (_expand_conv): Conv2dStaticSamePadding(
          128, 768, kernel_size=(1, 1), stride=(1, 1), bias=False
          (static_padding): Identity()
        )
        (_bn0): BatchNorm2d(48, eps=0.001, momentum=0.1, affine=True, track_running_stats=True)
        (_depthwise_conv): Conv2dStaticSamePadding(
          768, 768, kernel_size=(3, 3), stride=(1, 1), groups=768, bias=False
          (static_padding): ZeroPad2d((1, 1, 1, 1))
        )
        (_bn1): BatchNorm2d(2048, eps=0.001, momentum=0.1, affine=True, track_running_stats=True)
        (_se_reduce): Identity()
        (_se_expand): Identity()
        (_project_conv): Conv2dStaticSamePadding(
          768, 128, kernel_size=(1, 1), stride=(1, 1), bias=False
          (static_padding): Identity()
        )
        (_bn2): BatchNorm2d(128, eps=0.001, momentum=0.1, affine=True, track_running_stats=True)
        (_swish): Identity()
      )
      (15): MBConvBlock(
        (_expand_conv): Conv2dStaticSamePadding(
          128, 768, kernel_size=(1, 1), stride=(1, 1), bias=False
          (static_padding): Identity()
        )
        (_bn0): BatchNorm2d(48, eps=0.001, momentum=0.1, affine=True, track_running_stats=True)
        (_depthwise_conv): Conv2dStaticSamePadding(
          768, 768, kernel_size=(3, 3), stride=(1, 1), groups=768, bias=False
          (static_padding): ZeroPad2d((1, 1, 1, 1))
        )
        (_bn1): BatchNorm2d(2048, eps=0.001, momentum=0.1, affine=True, track_running_stats=True)
        (_se_reduce): Identity()
        (_se_expand): Identity()
        (_project_conv): Conv2dStaticSamePadding(
          768, 128, kernel_size=(1, 1), stride=(1, 1), bias=False
          (static_padding): Identity()
        )
        (_bn2): BatchNorm2d(128, eps=0.001, momentum=0.1, affine=True, track_running_stats=True)
        (_swish): Identity()
      )
      (16): MBConvBlock(
        (_expand_conv): Conv2dStaticSamePadding(
          128, 768, kernel_size=(1, 1), stride=(1, 1), bias=False
          (static_padding): Identity()
        )
        (_bn0): BatchNorm2d(48, eps=0.001, momentum=0.1, affine=True, track_running_stats=True)
        (_depthwise_conv): Conv2dStaticSamePadding(
          768, 768, kernel_size=(3, 3), stride=(1, 1), groups=768, bias=False
          (static_padding): ZeroPad2d((1, 1, 1, 1))
        )
        (_bn1): BatchNorm2d(2048, eps=0.001, momentum=0.1, affine=True, track_running_stats=True)
        (_se_reduce): Identity()
        (_se_expand): Identity()
        (_project_conv): Conv2dStaticSamePadding(
          768, 128, kernel_size=(1, 1), stride=(1, 1), bias=False
          (static_padding): Identity()
        )
        (_bn2): BatchNorm2d(128, eps=0.001, momentum=0.1, affine=True, track_running_stats=True)
        (_swish): Identity()
      )
      (17): MBConvBlock(
        (_expand_conv): Conv2dStaticSamePadding(
          128, 768, kernel_size=(1, 1), stride=(1, 1), bias=False
          (static_padding): Identity()
        )
        (_bn0): BatchNorm2d(48, eps=0.001, momentum=0.1, affine=True, track_running_stats=True)
        (_depthwise_conv): Conv2dStaticSamePadding(
          768, 768, kernel_size=(3, 3), stride=(1, 1), groups=768, bias=False
          (static_padding): ZeroPad2d((1, 1, 1, 1))
        )
        (_bn1): BatchNorm2d(2048, eps=0.001, momentum=0.1, affine=True, track_running_stats=True)
        (_se_reduce): Identity()
        (_se_expand): Identity()
        (_project_conv): Conv2dStaticSamePadding(
          768, 128, kernel_size=(1, 1), stride=(1, 1), bias=False
          (static_padding): Identity()
        )
        (_bn2): BatchNorm2d(128, eps=0.001, momentum=0.1, affine=True, track_running_stats=True)
        (_swish): Identity()
      )
      (18): MBConvBlock(
        (_expand_conv): Conv2dStaticSamePadding(
          128, 768, kernel_size=(1, 1), stride=(1, 1), bias=False
          (static_padding): Identity()
        )
        (_bn0): BatchNorm2d(48, eps=0.001, momentum=0.1, affine=True, track_running_stats=True)
        (_depthwise_conv): Conv2dStaticSamePadding(
          768, 768, kernel_size=(3, 3), stride=(1, 1), groups=768, bias=False
          (static_padding): ZeroPad2d((1, 1, 1, 1))
        )
        (_bn1): BatchNorm2d(2048, eps=0.001, momentum=0.1, affine=True, track_running_stats=True)
        (_se_reduce): Identity()
        (_se_expand): Identity()
        (_project_conv): Conv2dStaticSamePadding(
          768, 128, kernel_size=(1, 1), stride=(1, 1), bias=False
          (static_padding): Identity()
        )
        (_bn2): BatchNorm2d(128, eps=0.001, momentum=0.1, affine=True, track_running_stats=True)
        (_swish): Identity()
      )
      (19): MBConvBlock(
        (_expand_conv): Conv2dStaticSamePadding(
          128, 768, kernel_size=(1, 1), stride=(1, 1), bias=False
          (static_padding): Identity()
        )
        (_bn0): BatchNorm2d(48, eps=0.001, momentum=0.1, affine=True, track_running_stats=True)
        (_depthwise_conv): Conv2dStaticSamePadding(
          768, 768, kernel_size=(3, 3), stride=(1, 1), groups=768, bias=False
          (static_padding): ZeroPad2d((1, 1, 1, 1))
        )
        (_bn1): BatchNorm2d(2048, eps=0.001, momentum=0.1, affine=True, track_running_stats=True)
        (_se_reduce): Identity()
        (_se_expand): Identity()
        (_project_conv): Conv2dStaticSamePadding(
          768, 128, kernel_size=(1, 1), stride=(1, 1), bias=False
          (static_padding): Identity()
        )
        (_bn2): BatchNorm2d(128, eps=0.001, momentum=0.1, affine=True, track_running_stats=True)
        (_swish): Identity()
      )
      (20): MBConvBlock(
        (_expand_conv): Conv2dStaticSamePadding(
          128, 768, kernel_size=(1, 1), stride=(1, 1), bias=False
          (static_padding): Identity()
        )
        (_bn0): BatchNorm2d(48, eps=0.001, momentum=0.1, affine=True, track_running_stats=True)
        (_depthwise_conv): Conv2dStaticSamePadding(
          768, 768, kernel_size=(5, 5), stride=[1, 1], groups=768, bias=False
          (static_padding): ZeroPad2d((2, 2, 2, 2))
        )
        (_bn1): BatchNorm2d(2048, eps=0.001, momentum=0.1, affine=True, track_running_stats=True)
        (_se_reduce): Identity()
        (_se_expand): Identity()
        (_project_conv): Conv2dStaticSamePadding(
          768, 176, kernel_size=(1, 1), stride=(1, 1), bias=False
          (static_padding): Identity()
        )
        (_bn2): BatchNorm2d(176, eps=0.001, momentum=0.1, affine=True, track_running_stats=True)
        (_swish): Identity()
      )
      (21): MBConvBlock(
        (_expand_conv): Conv2dStaticSamePadding(
          176, 1056, kernel_size=(1, 1), stride=(1, 1), bias=False
          (static_padding): Identity()
        )
        (_bn0): BatchNorm2d(48, eps=0.001, momentum=0.1, affine=True, track_running_stats=True)
        (_depthwise_conv): Conv2dStaticSamePadding(
          1056, 1056, kernel_size=(5, 5), stride=(1, 1), groups=1056, bias=False
          (static_padding): ZeroPad2d((2, 2, 2, 2))
        )
        (_bn1): BatchNorm2d(2048, eps=0.001, momentum=0.1, affine=True, track_running_stats=True)
        (_se_reduce): Identity()
        (_se_expand): Identity()
        (_project_conv): Conv2dStaticSamePadding(
          1056, 176, kernel_size=(1, 1), stride=(1, 1), bias=False
          (static_padding): Identity()
        )
        (_bn2): BatchNorm2d(176, eps=0.001, momentum=0.1, affine=True, track_running_stats=True)
        (_swish): Identity()
      )
      (22): MBConvBlock(
        (_expand_conv): Conv2dStaticSamePadding(
          176, 1056, kernel_size=(1, 1), stride=(1, 1), bias=False
          (static_padding): Identity()
        )
        (_bn0): BatchNorm2d(48, eps=0.001, momentum=0.1, affine=True, track_running_stats=True)
        (_depthwise_conv): Conv2dStaticSamePadding(
          1056, 1056, kernel_size=(5, 5), stride=(1, 1), groups=1056, bias=False
          (static_padding): ZeroPad2d((2, 2, 2, 2))
        )
        (_bn1): BatchNorm2d(2048, eps=0.001, momentum=0.1, affine=True, track_running_stats=True)
        (_se_reduce): Identity()
        (_se_expand): Identity()
        (_project_conv): Conv2dStaticSamePadding(
          1056, 176, kernel_size=(1, 1), stride=(1, 1), bias=False
          (static_padding): Identity()
        )
        (_bn2): BatchNorm2d(176, eps=0.001, momentum=0.1, affine=True, track_running_stats=True)
        (_swish): Identity()
      )
      (23): MBConvBlock(
        (_expand_conv): Conv2dStaticSamePadding(
          176, 1056, kernel_size=(1, 1), stride=(1, 1), bias=False
          (static_padding): Identity()
        )
        (_bn0): BatchNorm2d(48, eps=0.001, momentum=0.1, affine=True, track_running_stats=True)
        (_depthwise_conv): Conv2dStaticSamePadding(
          1056, 1056, kernel_size=(5, 5), stride=(1, 1), groups=1056, bias=False
          (static_padding): ZeroPad2d((2, 2, 2, 2))
        )
        (_bn1): BatchNorm2d(2048, eps=0.001, momentum=0.1, affine=True, track_running_stats=True)
        (_se_reduce): Identity()
        (_se_expand): Identity()
        (_project_conv): Conv2dStaticSamePadding(
          1056, 176, kernel_size=(1, 1), stride=(1, 1), bias=False
          (static_padding): Identity()
        )
        (_bn2): BatchNorm2d(176, eps=0.001, momentum=0.1, affine=True, track_running_stats=True)
        (_swish): Identity()
      )
      (24): MBConvBlock(
        (_expand_conv): Conv2dStaticSamePadding(
          176, 1056, kernel_size=(1, 1), stride=(1, 1), bias=False
          (static_padding): Identity()
        )
        (_bn0): BatchNorm2d(48, eps=0.001, momentum=0.1, affine=True, track_running_stats=True)
        (_depthwise_conv): Conv2dStaticSamePadding(
          1056, 1056, kernel_size=(5, 5), stride=(1, 1), groups=1056, bias=False
          (static_padding): ZeroPad2d((2, 2, 2, 2))
        )
        (_bn1): BatchNorm2d(2048, eps=0.001, momentum=0.1, affine=True, track_running_stats=True)
        (_se_reduce): Identity()
        (_se_expand): Identity()
        (_project_conv): Conv2dStaticSamePadding(
          1056, 176, kernel_size=(1, 1), stride=(1, 1), bias=False
          (static_padding): Identity()
        )
        (_bn2): BatchNorm2d(176, eps=0.001, momentum=0.1, affine=True, track_running_stats=True)
        (_swish): Identity()
      )
      (25): MBConvBlock(
        (_expand_conv): Conv2dStaticSamePadding(
          176, 1056, kernel_size=(1, 1), stride=(1, 1), bias=False
          (static_padding): Identity()
        )
        (_bn0): BatchNorm2d(48, eps=0.001, momentum=0.1, affine=True, track_running_stats=True)
        (_depthwise_conv): Conv2dStaticSamePadding(
          1056, 1056, kernel_size=(5, 5), stride=(1, 1), groups=1056, bias=False
          (static_padding): ZeroPad2d((2, 2, 2, 2))
        )
        (_bn1): BatchNorm2d(2048, eps=0.001, momentum=0.1, affine=True, track_running_stats=True)
        (_se_reduce): Identity()
        (_se_expand): Identity()
        (_project_conv): Conv2dStaticSamePadding(
          1056, 176, kernel_size=(1, 1), stride=(1, 1), bias=False
          (static_padding): Identity()
        )
        (_bn2): BatchNorm2d(176, eps=0.001, momentum=0.1, affine=True, track_running_stats=True)
        (_swish): Identity()
      )
      (26): MBConvBlock(
        (_expand_conv): Conv2dStaticSamePadding(
          176, 1056, kernel_size=(1, 1), stride=(1, 1), bias=False
          (static_padding): Identity()
        )
        (_bn0): BatchNorm2d(48, eps=0.001, momentum=0.1, affine=True, track_running_stats=True)
        (_depthwise_conv): Conv2dStaticSamePadding(
          1056, 1056, kernel_size=(5, 5), stride=(1, 1), groups=1056, bias=False
          (static_padding): ZeroPad2d((2, 2, 2, 2))
        )
        (_bn1): BatchNorm2d(2048, eps=0.001, momentum=0.1, affine=True, track_running_stats=True)
        (_se_reduce): Identity()
        (_se_expand): Identity()
        (_project_conv): Conv2dStaticSamePadding(
          1056, 176, kernel_size=(1, 1), stride=(1, 1), bias=False
          (static_padding): Identity()
        )
        (_bn2): BatchNorm2d(176, eps=0.001, momentum=0.1, affine=True, track_running_stats=True)
        (_swish): Identity()
      )
      (27): MBConvBlock(
        (_expand_conv): Conv2dStaticSamePadding(
          176, 1056, kernel_size=(1, 1), stride=(1, 1), bias=False
          (static_padding): Identity()
        )
        (_bn0): BatchNorm2d(48, eps=0.001, momentum=0.1, affine=True, track_running_stats=True)
        (_depthwise_conv): Conv2dStaticSamePadding(
          1056, 1056, kernel_size=(5, 5), stride=[2, 2], groups=1056, bias=False
          (static_padding): ZeroPad2d((2, 2, 2, 2))
        )
        (_bn1): BatchNorm2d(2048, eps=0.001, momentum=0.1, affine=True, track_running_stats=True)
        (_se_reduce): Identity()
        (_se_expand): Identity()
        (_project_conv): Conv2dStaticSamePadding(
          1056, 304, kernel_size=(1, 1), stride=(1, 1), bias=False
          (static_padding): Identity()
        )
        (_bn2): BatchNorm2d(304, eps=0.001, momentum=0.1, affine=True, track_running_stats=True)
        (_swish): Identity()
      )
      (28): MBConvBlock(
        (_expand_conv): Conv2dStaticSamePadding(
          304, 1824, kernel_size=(1, 1), stride=(1, 1), bias=False
          (static_padding): Identity()
        )
        (_bn0): BatchNorm2d(48, eps=0.001, momentum=0.1, affine=True, track_running_stats=True)
        (_depthwise_conv): Conv2dStaticSamePadding(
          1824, 1824, kernel_size=(5, 5), stride=(1, 1), groups=1824, bias=False
          (static_padding): ZeroPad2d((2, 2, 2, 2))
        )
        (_bn1): BatchNorm2d(2048, eps=0.001, momentum=0.1, affine=True, track_running_stats=True)
        (_se_reduce): Identity()
        (_se_expand): Identity()
        (_project_conv): Conv2dStaticSamePadding(
          1824, 304, kernel_size=(1, 1), stride=(1, 1), bias=False
          (static_padding): Identity()
        )
        (_bn2): BatchNorm2d(304, eps=0.001, momentum=0.1, affine=True, track_running_stats=True)
        (_swish): Identity()
      )
      (29): MBConvBlock(
        (_expand_conv): Conv2dStaticSamePadding(
          304, 1824, kernel_size=(1, 1), stride=(1, 1), bias=False
          (static_padding): Identity()
        )
        (_bn0): BatchNorm2d(48, eps=0.001, momentum=0.1, affine=True, track_running_stats=True)
        (_depthwise_conv): Conv2dStaticSamePadding(
          1824, 1824, kernel_size=(5, 5), stride=(1, 1), groups=1824, bias=False
          (static_padding): ZeroPad2d((2, 2, 2, 2))
        )
        (_bn1): BatchNorm2d(2048, eps=0.001, momentum=0.1, affine=True, track_running_stats=True)
        (_se_reduce): Identity()
        (_se_expand): Identity()
        (_project_conv): Conv2dStaticSamePadding(
          1824, 304, kernel_size=(1, 1), stride=(1, 1), bias=False
          (static_padding): Identity()
        )
        (_bn2): BatchNorm2d(304, eps=0.001, momentum=0.1, affine=True, track_running_stats=True)
        (_swish): Identity()
      )
      (30): MBConvBlock(
        (_expand_conv): Conv2dStaticSamePadding(
          304, 1824, kernel_size=(1, 1), stride=(1, 1), bias=False
          (static_padding): Identity()
        )
        (_bn0): BatchNorm2d(48, eps=0.001, momentum=0.1, affine=True, track_running_stats=True)
        (_depthwise_conv): Conv2dStaticSamePadding(
          1824, 1824, kernel_size=(5, 5), stride=(1, 1), groups=1824, bias=False
          (static_padding): ZeroPad2d((2, 2, 2, 2))
        )
        (_bn1): BatchNorm2d(2048, eps=0.001, momentum=0.1, affine=True, track_running_stats=True)
        (_se_reduce): Identity()
        (_se_expand): Identity()
        (_project_conv): Conv2dStaticSamePadding(
          1824, 304, kernel_size=(1, 1), stride=(1, 1), bias=False
          (static_padding): Identity()
        )
        (_bn2): BatchNorm2d(304, eps=0.001, momentum=0.1, affine=True, track_running_stats=True)
        (_swish): Identity()
      )
      (31): MBConvBlock(
        (_expand_conv): Conv2dStaticSamePadding(
          304, 1824, kernel_size=(1, 1), stride=(1, 1), bias=False
          (static_padding): Identity()
        )
        (_bn0): BatchNorm2d(48, eps=0.001, momentum=0.1, affine=True, track_running_stats=True)
        (_depthwise_conv): Conv2dStaticSamePadding(
          1824, 1824, kernel_size=(5, 5), stride=(1, 1), groups=1824, bias=False
          (static_padding): ZeroPad2d((2, 2, 2, 2))
        )
        (_bn1): BatchNorm2d(2048, eps=0.001, momentum=0.1, affine=True, track_running_stats=True)
        (_se_reduce): Identity()
        (_se_expand): Identity()
        (_project_conv): Conv2dStaticSamePadding(
          1824, 304, kernel_size=(1, 1), stride=(1, 1), bias=False
          (static_padding): Identity()
        )
        (_bn2): BatchNorm2d(304, eps=0.001, momentum=0.1, affine=True, track_running_stats=True)
        (_swish): Identity()
      )
      (32): MBConvBlock(
        (_expand_conv): Conv2dStaticSamePadding(
          304, 1824, kernel_size=(1, 1), stride=(1, 1), bias=False
          (static_padding): Identity()
        )
        (_bn0): BatchNorm2d(48, eps=0.001, momentum=0.1, affine=True, track_running_stats=True)
        (_depthwise_conv): Conv2dStaticSamePadding(
          1824, 1824, kernel_size=(5, 5), stride=(1, 1), groups=1824, bias=False
          (static_padding): ZeroPad2d((2, 2, 2, 2))
        )
        (_bn1): BatchNorm2d(2048, eps=0.001, momentum=0.1, affine=True, track_running_stats=True)
        (_se_reduce): Identity()
        (_se_expand): Identity()
        (_project_conv): Conv2dStaticSamePadding(
          1824, 304, kernel_size=(1, 1), stride=(1, 1), bias=False
          (static_padding): Identity()
        )
        (_bn2): BatchNorm2d(304, eps=0.001, momentum=0.1, affine=True, track_running_stats=True)
        (_swish): Identity()
      )
      (33): MBConvBlock(
        (_expand_conv): Conv2dStaticSamePadding(
          304, 1824, kernel_size=(1, 1), stride=(1, 1), bias=False
          (static_padding): Identity()
        )
        (_bn0): BatchNorm2d(48, eps=0.001, momentum=0.1, affine=True, track_running_stats=True)
        (_depthwise_conv): Conv2dStaticSamePadding(
          1824, 1824, kernel_size=(5, 5), stride=(1, 1), groups=1824, bias=False
          (static_padding): ZeroPad2d((2, 2, 2, 2))
        )
        (_bn1): BatchNorm2d(2048, eps=0.001, momentum=0.1, affine=True, track_running_stats=True)
        (_se_reduce): Identity()
        (_se_expand): Identity()
        (_project_conv): Conv2dStaticSamePadding(
          1824, 304, kernel_size=(1, 1), stride=(1, 1), bias=False
          (static_padding): Identity()
        )
        (_bn2): BatchNorm2d(304, eps=0.001, momentum=0.1, affine=True, track_running_stats=True)
        (_swish): Identity()
      )
      (34): MBConvBlock(
        (_expand_conv): Conv2dStaticSamePadding(
          304, 1824, kernel_size=(1, 1), stride=(1, 1), bias=False
          (static_padding): Identity()
        )
        (_bn0): BatchNorm2d(48, eps=0.001, momentum=0.1, affine=True, track_running_stats=True)
        (_depthwise_conv): Conv2dStaticSamePadding(
          1824, 1824, kernel_size=(5, 5), stride=(1, 1), groups=1824, bias=False
          (static_padding): ZeroPad2d((2, 2, 2, 2))
        )
        (_bn1): BatchNorm2d(2048, eps=0.001, momentum=0.1, affine=True, track_running_stats=True)
        (_se_reduce): Identity()
        (_se_expand): Identity()
        (_project_conv): Conv2dStaticSamePadding(
          1824, 304, kernel_size=(1, 1), stride=(1, 1), bias=False
          (static_padding): Identity()
        )
        (_bn2): BatchNorm2d(304, eps=0.001, momentum=0.1, affine=True, track_running_stats=True)
        (_swish): Identity()
      )
      (35): MBConvBlock(
        (_expand_conv): Conv2dStaticSamePadding(
          304, 1824, kernel_size=(1, 1), stride=(1, 1), bias=False
          (static_padding): Identity()
        )
        (_bn0): BatchNorm2d(48, eps=0.001, momentum=0.1, affine=True, track_running_stats=True)
        (_depthwise_conv): Conv2dStaticSamePadding(
          1824, 1824, kernel_size=(5, 5), stride=(1, 1), groups=1824, bias=False
          (static_padding): ZeroPad2d((2, 2, 2, 2))
        )
        (_bn1): BatchNorm2d(2048, eps=0.001, momentum=0.1, affine=True, track_running_stats=True)
        (_se_reduce): Identity()
        (_se_expand): Identity()
        (_project_conv): Conv2dStaticSamePadding(
          1824, 304, kernel_size=(1, 1), stride=(1, 1), bias=False
          (static_padding): Identity()
        )
        (_bn2): BatchNorm2d(304, eps=0.001, momentum=0.1, affine=True, track_running_stats=True)
        (_swish): Identity()
      )
      (36): MBConvBlock(
        (_expand_conv): Conv2dStaticSamePadding(
          304, 1824, kernel_size=(1, 1), stride=(1, 1), bias=False
          (static_padding): Identity()
        )
        (_bn0): BatchNorm2d(48, eps=0.001, momentum=0.1, affine=True, track_running_stats=True)
        (_depthwise_conv): Conv2dStaticSamePadding(
          1824, 1824, kernel_size=(3, 3), stride=[1, 1], groups=1824, bias=False
          (static_padding): ZeroPad2d((1, 1, 1, 1))
        )
        (_bn1): BatchNorm2d(2048, eps=0.001, momentum=0.1, affine=True, track_running_stats=True)
        (_se_reduce): Identity()
        (_se_expand): Identity()
        (_project_conv): Conv2dStaticSamePadding(
          1824, 512, kernel_size=(1, 1), stride=(1, 1), bias=False
          (static_padding): Identity()
        )
        (_bn2): BatchNorm2d(512, eps=0.001, momentum=0.1, affine=True, track_running_stats=True)
        (_swish): Identity()
      )
      (37): MBConvBlock(
        (_expand_conv): Conv2dStaticSamePadding(
          512, 3072, kernel_size=(1, 1), stride=(1, 1), bias=False
          (static_padding): Identity()
        )
        (_bn0): BatchNorm2d(48, eps=0.001, momentum=0.1, affine=True, track_running_stats=True)
        (_depthwise_conv): Conv2dStaticSamePadding(
          3072, 3072, kernel_size=(3, 3), stride=(1, 1), groups=3072, bias=False
          (static_padding): ZeroPad2d((1, 1, 1, 1))
        )
        (_bn1): BatchNorm2d(2048, eps=0.001, momentum=0.1, affine=True, track_running_stats=True)
        (_se_reduce): Identity()
        (_se_expand): Identity()
        (_project_conv): Conv2dStaticSamePadding(
          3072, 512, kernel_size=(1, 1), stride=(1, 1), bias=False
          (static_padding): Identity()
        )
        (_bn2): BatchNorm2d(512, eps=0.001, momentum=0.1, affine=True, track_running_stats=True)
        (_swish): Identity()
      )
      (38): MBConvBlock(
        (_expand_conv): Conv2dStaticSamePadding(
          512, 3072, kernel_size=(1, 1), stride=(1, 1), bias=False
          (static_padding): Identity()
        )
        (_bn0): BatchNorm2d(48, eps=0.001, momentum=0.1, affine=True, track_running_stats=True)
        (_depthwise_conv): Conv2dStaticSamePadding(
          3072, 3072, kernel_size=(3, 3), stride=(1, 1), groups=3072, bias=False
          (static_padding): ZeroPad2d((1, 1, 1, 1))
        )
        (_bn1): BatchNorm2d(2048, eps=0.001, momentum=0.1, affine=True, track_running_stats=True)
        (_se_reduce): Identity()
        (_se_expand): Identity()
        (_project_conv): Conv2dStaticSamePadding(
          3072, 512, kernel_size=(1, 1), stride=(1, 1), bias=False
          (static_padding): Identity()
        )
        (_bn2): BatchNorm2d(512, eps=0.001, momentum=0.1, affine=True, track_running_stats=True)
        (_swish): Identity()
      )
    )
    (_conv_head): Conv2dStaticSamePadding(
      512, 2048, kernel_size=(1, 1), stride=(1, 1), bias=False
      (static_padding): Identity()
    )
    (_bn1): BatchNorm2d(2048, eps=0.001, momentum=0.1, affine=True, track_running_stats=True)
    (_avg_pooling): AdaptiveAvgPool2d(output_size=1)
    (_dropout): Dropout(p=0.4, inplace=False)
    (_fc): Linear(in_features=2048, out_features=1000, bias=True)
    (_swish): Identity()
  )
  (fpn): TwoWayFpn(
    (conv_b_up_x4): Conv2d(40, 256, kernel_size=(1, 1), stride=(1, 1))
    (iabn_b_up_x4): BatchNorm2d(256, eps=1e-05, momentum=0.1, affine=True, track_running_stats=True)
    (conv_t_dn_x4): Conv2d(40, 256, kernel_size=(1, 1), stride=(1, 1))
    (iabn_t_dn_x4): BatchNorm2d(256, eps=1e-05, momentum=0.1, affine=True, track_running_stats=True)
    (conv_b_up_x8): Conv2d(64, 256, kernel_size=(1, 1), stride=(1, 1))
    (iabn_b_up_x8): BatchNorm2d(256, eps=1e-05, momentum=0.1, affine=True, track_running_stats=True)
    (conv_t_dn_x8): Conv2d(64, 256, kernel_size=(1, 1), stride=(1, 1))
    (iabn_t_dn_x8): BatchNorm2d(256, eps=1e-05, momentum=0.1, affine=True, track_running_stats=True)
    (conv_b_up_x16): Conv2d(176, 256, kernel_size=(1, 1), stride=(1, 1))
    (iabn_b_up_x16): BatchNorm2d(256, eps=1e-05, momentum=0.1, affine=True, track_running_stats=True)
    (conv_t_dn_x16): Conv2d(176, 256, kernel_size=(1, 1), stride=(1, 1))
    (iabn_t_dn_x16): BatchNorm2d(256, eps=1e-05, momentum=0.1, affine=True, track_running_stats=True)
    (conv_b_up_x32): Conv2d(2048, 256, kernel_size=(1, 1), stride=(1, 1))
    (iabn_b_up_x32): BatchNorm2d(256, eps=1e-05, momentum=0.1, affine=True, track_running_stats=True)
    (conv_t_dn_x32): Conv2d(2048, 256, kernel_size=(1, 1), stride=(1, 1))
    (iabn_t_dn_x32): BatchNorm2d(256, eps=1e-05, momentum=0.1, affine=True, track_running_stats=True)
    (depth_wise_conv_x4): DepthwiseSeparableConv(
      (depthwise_conv): Conv2d(256, 256, kernel_size=(3, 3), stride=(1, 1), padding=(1, 1), groups=256)
      (iabn): BatchNorm2d(256, eps=1e-05, momentum=0.1, affine=True, track_running_stats=True)
      (pointwise_conv): Conv2d(256, 256, kernel_size=(1, 1), stride=(1, 1))
    )
    (iabn_out_x4): BatchNorm2d(256, eps=1e-05, momentum=0.1, affine=True, track_running_stats=True)
    (depth_wise_conv_x8): DepthwiseSeparableConv(
      (depthwise_conv): Conv2d(256, 256, kernel_size=(3, 3), stride=(1, 1), padding=(1, 1), groups=256)
      (iabn): BatchNorm2d(256, eps=1e-05, momentum=0.1, affine=True, track_running_stats=True)
      (pointwise_conv): Conv2d(256, 256, kernel_size=(1, 1), stride=(1, 1))
    )
    (iabn_out_x8): BatchNorm2d(256, eps=1e-05, momentum=0.1, affine=True, track_running_stats=True)
    (depth_wise_conv_x16): DepthwiseSeparableConv(
      (depthwise_conv): Conv2d(256, 256, kernel_size=(3, 3), stride=(1, 1), padding=(1, 1), groups=256)
      (iabn): BatchNorm2d(256, eps=1e-05, momentum=0.1, affine=True, track_running_stats=True)
      (pointwise_conv): Conv2d(256, 256, kernel_size=(1, 1), stride=(1, 1))
    )
    (iabn_out_x16): BatchNorm2d(256, eps=1e-05, momentum=0.1, affine=True, track_running_stats=True)
    (depth_wise_conv_x32): DepthwiseSeparableConv(
      (depthwise_conv): Conv2d(256, 256, kernel_size=(3, 3), stride=(1, 1), padding=(1, 1), groups=256)
      (iabn): BatchNorm2d(256, eps=1e-05, momentum=0.1, affine=True, track_running_stats=True)
      (pointwise_conv): Conv2d(256, 256, kernel_size=(1, 1), stride=(1, 1))
    )
    (iabn_out_x32): BatchNorm2d(256, eps=1e-05, momentum=0.1, affine=True, track_running_stats=True)
  )
  (semantic_head): SemanticHead(
    (dpc_x32): DPC(
      (conv_first): DepthwiseSeparableConv(
        (depthwise_conv): Conv2d(256, 256, kernel_size=(3, 3), stride=(1, 1), padding=(1, 6), dilation=(1, 6), groups=256)
        (iabn): BatchNorm2d(256, eps=1e-05, momentum=0.1, affine=True, track_running_stats=True)
        (pointwise_conv): Conv2d(256, 256, kernel_size=(1, 1), stride=(1, 1))
      )
      (iabn_first): BatchNorm2d(256, eps=1e-05, momentum=0.1, affine=True, track_running_stats=True)
      (conv_branch_1): DepthwiseSeparableConv(
        (depthwise_conv): Conv2d(256, 256, kernel_size=(3, 3), stride=(1, 1), padding=(1, 1), groups=256)
        (iabn): BatchNorm2d(256, eps=1e-05, momentum=0.1, affine=True, track_running_stats=True)
        (pointwise_conv): Conv2d(256, 256, kernel_size=(1, 1), stride=(1, 1))
      )
      (iabn_branch_1): BatchNorm2d(256, eps=1e-05, momentum=0.1, affine=True, track_running_stats=True)
      (conv_branch_2): DepthwiseSeparableConv(
        (depthwise_conv): Conv2d(256, 256, kernel_size=(3, 3), stride=(1, 1), padding=(6, 21), dilation=(6, 21), groups=256)
        (iabn): BatchNorm2d(256, eps=1e-05, momentum=0.1, affine=True, track_running_stats=True)
        (pointwise_conv): Conv2d(256, 256, kernel_size=(1, 1), stride=(1, 1))
      )
      (iabn_branch_2): BatchNorm2d(256, eps=1e-05, momentum=0.1, affine=True, track_running_stats=True)
      (conv_branch_3): DepthwiseSeparableConv(
        (depthwise_conv): Conv2d(256, 256, kernel_size=(3, 3), stride=(1, 1), padding=(18, 15), dilation=(18, 15), groups=256)
        (iabn): BatchNorm2d(256, eps=1e-05, momentum=0.1, affine=True, track_running_stats=True)
        (pointwise_conv): Conv2d(256, 256, kernel_size=(1, 1), stride=(1, 1))
      )
      (iabn_branch_3): BatchNorm2d(256, eps=1e-05, momentum=0.1, affine=True, track_running_stats=True)
      (conv_branch_4): DepthwiseSeparableConv(
        (depthwise_conv): Conv2d(256, 256, kernel_size=(3, 3), stride=(1, 1), padding=(6, 3), dilation=(6, 3), groups=256)
        (iabn): BatchNorm2d(256, eps=1e-05, momentum=0.1, affine=True, track_running_stats=True)
        (pointwise_conv): Conv2d(256, 256, kernel_size=(1, 1), stride=(1, 1))
      )
      (iabn_branch_4): BatchNorm2d(256, eps=1e-05, momentum=0.1, affine=True, track_running_stats=True)
      (conv_last): Conv2d(1280, 128, kernel_size=(1, 1), stride=(1, 1))
      (iabn_last): BatchNorm2d(128, eps=1e-05, momentum=0.1, affine=True, track_running_stats=True)
    )
    (dpc_x16): DPC(
      (conv_first): DepthwiseSeparableConv(
        (depthwise_conv): Conv2d(256, 256, kernel_size=(3, 3), stride=(1, 1), padding=(1, 6), dilation=(1, 6), groups=256)
        (iabn): BatchNorm2d(256, eps=1e-05, momentum=0.1, affine=True, track_running_stats=True)
        (pointwise_conv): Conv2d(256, 256, kernel_size=(1, 1), stride=(1, 1))
      )
      (iabn_first): BatchNorm2d(256, eps=1e-05, momentum=0.1, affine=True, track_running_stats=True)
      (conv_branch_1): DepthwiseSeparableConv(
        (depthwise_conv): Conv2d(256, 256, kernel_size=(3, 3), stride=(1, 1), padding=(1, 1), groups=256)
        (iabn): BatchNorm2d(256, eps=1e-05, momentum=0.1, affine=True, track_running_stats=True)
        (pointwise_conv): Conv2d(256, 256, kernel_size=(1, 1), stride=(1, 1))
      )
      (iabn_branch_1): BatchNorm2d(256, eps=1e-05, momentum=0.1, affine=True, track_running_stats=True)
      (conv_branch_2): DepthwiseSeparableConv(
        (depthwise_conv): Conv2d(256, 256, kernel_size=(3, 3), stride=(1, 1), padding=(6, 21), dilation=(6, 21), groups=256)
        (iabn): BatchNorm2d(256, eps=1e-05, momentum=0.1, affine=True, track_running_stats=True)
        (pointwise_conv): Conv2d(256, 256, kernel_size=(1, 1), stride=(1, 1))
      )
      (iabn_branch_2): BatchNorm2d(256, eps=1e-05, momentum=0.1, affine=True, track_running_stats=True)
      (conv_branch_3): DepthwiseSeparableConv(
        (depthwise_conv): Conv2d(256, 256, kernel_size=(3, 3), stride=(1, 1), padding=(18, 15), dilation=(18, 15), groups=256)
        (iabn): BatchNorm2d(256, eps=1e-05, momentum=0.1, affine=True, track_running_stats=True)
        (pointwise_conv): Conv2d(256, 256, kernel_size=(1, 1), stride=(1, 1))
      )
      (iabn_branch_3): BatchNorm2d(256, eps=1e-05, momentum=0.1, affine=True, track_running_stats=True)
      (conv_branch_4): DepthwiseSeparableConv(
        (depthwise_conv): Conv2d(256, 256, kernel_size=(3, 3), stride=(1, 1), padding=(6, 3), dilation=(6, 3), groups=256)
        (iabn): BatchNorm2d(256, eps=1e-05, momentum=0.1, affine=True, track_running_stats=True)
        (pointwise_conv): Conv2d(256, 256, kernel_size=(1, 1), stride=(1, 1))
      )
      (iabn_branch_4): BatchNorm2d(256, eps=1e-05, momentum=0.1, affine=True, track_running_stats=True)
      (conv_last): Conv2d(1280, 128, kernel_size=(1, 1), stride=(1, 1))
      (iabn_last): BatchNorm2d(128, eps=1e-05, momentum=0.1, affine=True, track_running_stats=True)
    )
    (lsfe_x8): LSFE(
      (conv_1): DepthwiseSeparableConv(
        (depthwise_conv): Conv2d(256, 256, kernel_size=(3, 3), stride=(1, 1), padding=(1, 1), groups=256)
        (iabn): BatchNorm2d(256, eps=1e-05, momentum=0.1, affine=True, track_running_stats=True)
        (pointwise_conv): Conv2d(256, 128, kernel_size=(1, 1), stride=(1, 1))
      )
      (conv_2): DepthwiseSeparableConv(
        (depthwise_conv): Conv2d(128, 128, kernel_size=(3, 3), stride=(1, 1), padding=(1, 1), groups=128)
        (iabn): BatchNorm2d(128, eps=1e-05, momentum=0.1, affine=True, track_running_stats=True)
        (pointwise_conv): Conv2d(128, 128, kernel_size=(1, 1), stride=(1, 1))
      )
      (abn_1): BatchNorm2d(128, eps=1e-05, momentum=0.1, affine=True, track_running_stats=True)
      (abn_2): BatchNorm2d(128, eps=1e-05, momentum=0.1, affine=True, track_running_stats=True)
    )
    (lsfe_x4): LSFE(
      (conv_1): DepthwiseSeparableConv(
        (depthwise_conv): Conv2d(256, 256, kernel_size=(3, 3), stride=(1, 1), padding=(1, 1), groups=256)
        (iabn): BatchNorm2d(256, eps=1e-05, momentum=0.1, affine=True, track_running_stats=True)
        (pointwise_conv): Conv2d(256, 128, kernel_size=(1, 1), stride=(1, 1))
      )
      (conv_2): DepthwiseSeparableConv(
        (depthwise_conv): Conv2d(128, 128, kernel_size=(3, 3), stride=(1, 1), padding=(1, 1), groups=128)
        (iabn): BatchNorm2d(128, eps=1e-05, momentum=0.1, affine=True, track_running_stats=True)
        (pointwise_conv): Conv2d(128, 128, kernel_size=(1, 1), stride=(1, 1))
      )
      (abn_1): BatchNorm2d(128, eps=1e-05, momentum=0.1, affine=True, track_running_stats=True)
      (abn_2): BatchNorm2d(128, eps=1e-05, momentum=0.1, affine=True, track_running_stats=True)
    )
    (mc_16_to_8): MC(
      (conv_1): DepthwiseSeparableConv(
        (depthwise_conv): Conv2d(128, 128, kernel_size=(3, 3), stride=(1, 1), padding=(1, 1), groups=128)
        (iabn): BatchNorm2d(128, eps=1e-05, momentum=0.1, affine=True, track_running_stats=True)
        (pointwise_conv): Conv2d(128, 128, kernel_size=(1, 1), stride=(1, 1))
      )
      (conv_2): DepthwiseSeparableConv(
        (depthwise_conv): Conv2d(128, 128, kernel_size=(3, 3), stride=(1, 1), padding=(1, 1), groups=128)
        (iabn): BatchNorm2d(128, eps=1e-05, momentum=0.1, affine=True, track_running_stats=True)
        (pointwise_conv): Conv2d(128, 128, kernel_size=(1, 1), stride=(1, 1))
      )
      (abn_1): BatchNorm2d(128, eps=1e-05, momentum=0.1, affine=True, track_running_stats=True)
      (abn_2): BatchNorm2d(128, eps=1e-05, momentum=0.1, affine=True, track_running_stats=True)
    )
    (mc_8_to_4): MC(
      (conv_1): DepthwiseSeparableConv(
        (depthwise_conv): Conv2d(128, 128, kernel_size=(3, 3), stride=(1, 1), padding=(1, 1), groups=128)
        (iabn): BatchNorm2d(128, eps=1e-05, momentum=0.1, affine=True, track_running_stats=True)
        (pointwise_conv): Conv2d(128, 128, kernel_size=(1, 1), stride=(1, 1))
      )
      (conv_2): DepthwiseSeparableConv(
        (depthwise_conv): Conv2d(128, 128, kernel_size=(3, 3), stride=(1, 1), padding=(1, 1), groups=128)
        (iabn): BatchNorm2d(128, eps=1e-05, momentum=0.1, affine=True, track_running_stats=True)
        (pointwise_conv): Conv2d(128, 128, kernel_size=(1, 1), stride=(1, 1))
      )
      (abn_1): BatchNorm2d(128, eps=1e-05, momentum=0.1, affine=True, track_running_stats=True)
      (abn_2): BatchNorm2d(128, eps=1e-05, momentum=0.1, affine=True, track_running_stats=True)
    )
    (last_conv): Conv2d(512, 19, kernel_size=(1, 1), stride=(1, 1))
    (softmax): Softmax(dim=1)
    (cross_entropy_loss): CrossEntropyLoss()
  )
  (instance_head): InstanceHead(
    (rpn): RPNCustom(
      (rpn_head): DepthwiseSepRPNHead(
        (conv): DepthwiseSeparableConv(
          (depthwise_conv): Conv2d(256, 256, kernel_size=(3, 3), stride=(1, 1), padding=(1, 1), groups=256)
          (iabn): BatchNorm2d(256, eps=1e-05, momentum=0.1, affine=True, track_running_stats=True)
          (pointwise_conv): Conv2d(256, 256, kernel_size=(1, 1), stride=(1, 1))
        )
        (objectness_logits): Conv2d(256, 3, kernel_size=(1, 1), stride=(1, 1))
        (anchor_deltas): Conv2d(256, 12, kernel_size=(1, 1), stride=(1, 1))
        (iabn): BatchNorm2d(256, eps=1e-05, momentum=0.1, affine=True, track_running_stats=True)
      )
      (anchor_generator): DefaultAnchorGenerator(
        (cell_anchors): BufferList()
      )
    )
    (roi_heads): CustomROIHeads(
      (box_pooler): ROIPooler(
        (level_poolers): ModuleList(
          (0): ROIAlign(output_size=(7, 7), spatial_scale=0.25, sampling_ratio=2, aligned=False)
          (1): ROIAlign(output_size=(7, 7), spatial_scale=0.125, sampling_ratio=2, aligned=False)
          (2): ROIAlign(output_size=(7, 7), spatial_scale=0.0625, sampling_ratio=2, aligned=False)
          (3): ROIAlign(output_size=(7, 7), spatial_scale=0.03125, sampling_ratio=2, aligned=False)
        )
      )
      (box_head): BboxNetwork(
        (flatten): Flatten(start_dim=1, end_dim=-1)
        (first_fc): Linear(in_features=12544, out_features=1024, bias=True)
        (first_iabn): BatchNorm2d(1024, eps=1e-05, momentum=0.1, affine=True, track_running_stats=True)
        (second_fc): Linear(in_features=1024, out_features=1024, bias=True)
        (second_iabn): BatchNorm2d(1024, eps=1e-05, momentum=0.1, affine=True, track_running_stats=True)
      )
      (box_predictor): FastRCNNOutputLayers(
        (cls_score): Linear(in_features=1024, out_features=9, bias=True)
        (bbox_pred): Linear(in_features=1024, out_features=32, bias=True)
      )
      (mask_pooler): ROIPooler(
        (level_poolers): ModuleList(
          (0): ROIAlign(output_size=(14, 14), spatial_scale=0.25, sampling_ratio=2, aligned=False)
          (1): ROIAlign(output_size=(14, 14), spatial_scale=0.125, sampling_ratio=2, aligned=False)
          (2): ROIAlign(output_size=(14, 14), spatial_scale=0.0625, sampling_ratio=2, aligned=False)
          (3): ROIAlign(output_size=(14, 14), spatial_scale=0.03125, sampling_ratio=2, aligned=False)
        )
      )
      (mask_head): MaskNetwork(
        (conv_iabn_layers): ModuleList(
          (0): DepthwiseSeparableConv(
            (depthwise_conv): Conv2d(256, 256, kernel_size=(3, 3), stride=(1, 1), padding=(1, 1), groups=256)
            (iabn): BatchNorm2d(256, eps=1e-05, momentum=0.1, affine=True, track_running_stats=True)
            (pointwise_conv): Conv2d(256, 256, kernel_size=(1, 1), stride=(1, 1))
          )
          (1): BatchNorm2d(256, eps=1e-05, momentum=0.1, affine=True, track_running_stats=True)
          (2): DepthwiseSeparableConv(
            (depthwise_conv): Conv2d(256, 256, kernel_size=(3, 3), stride=(1, 1), padding=(1, 1), groups=256)
            (iabn): BatchNorm2d(256, eps=1e-05, momentum=0.1, affine=True, track_running_stats=True)
            (pointwise_conv): Conv2d(256, 256, kernel_size=(1, 1), stride=(1, 1))
          )
          (3): BatchNorm2d(256, eps=1e-05, momentum=0.1, affine=True, track_running_stats=True)
          (4): DepthwiseSeparableConv(
            (depthwise_conv): Conv2d(256, 256, kernel_size=(3, 3), stride=(1, 1), padding=(1, 1), groups=256)
            (iabn): BatchNorm2d(256, eps=1e-05, momentum=0.1, affine=True, track_running_stats=True)
            (pointwise_conv): Conv2d(256, 256, kernel_size=(1, 1), stride=(1, 1))
          )
          (5): BatchNorm2d(256, eps=1e-05, momentum=0.1, affine=True, track_running_stats=True)
          (6): DepthwiseSeparableConv(
            (depthwise_conv): Conv2d(256, 256, kernel_size=(3, 3), stride=(1, 1), padding=(1, 1), groups=256)
            (iabn): BatchNorm2d(256, eps=1e-05, momentum=0.1, affine=True, track_running_stats=True)
            (pointwise_conv): Conv2d(256, 256, kernel_size=(1, 1), stride=(1, 1))
          )
          (7): BatchNorm2d(256, eps=1e-05, momentum=0.1, affine=True, track_running_stats=True)
        )
        (deconv): ConvTranspose2d(256, 256, kernel_size=(2, 2), stride=(2, 2))
        (last_iabn): BatchNorm2d(256, eps=1e-05, momentum=0.1, affine=True, track_running_stats=True)
        (last_conv): Conv2d(256, 9, kernel_size=(1, 1), stride=(1, 1))
      )
    )
  )
)>
MODEL:
  ANCHOR_GENERATOR:
    SIZES: [[32], [64], [128], [256]]  # One size for each in feature map
    ASPECT_RATIOS: [[0.5, 1.0, 2.0]]  # Three aspect ratios (same for all in feature maps)
  PROPOSAL_GENERATOR:
    NAME: "RPNCustom"
  RPN:
    HEAD_NAME: "DepthwiseSepRPNHead" # Normal RPN Head "StandardRPNHead"
    IN_FEATURES: ["P_4", "P_8", "P_16", "P_32"]
…
          3072, 512, kernel_size=(1, 1), stride=(1, 1), bias=False
          (static_padding): Identity()
        )
        (_bn2): InPlaceABN(512, eps=0.001, momentum=0.1, affine=True, activation=leaky_relu[0.01])
        (_swish): Identity()
      )
    )
    (_conv_head): Conv2dStaticSamePadding(
      512, 2048, kernel_size=(1, 1), stride=(1, 1), bias=False
      (static_padding): Identity()
    )
    (_bn1): InPlaceABN(2048, eps=0.001, momentum=0.1, affine=True, activation=leaky_relu[0.01])
    (_avg_pooling): AdaptiveAvgPool2d(output_size=1)
    (_dropout): Dropout(p=0.4, inplace=False)
    (_fc): Linear(in_features=2048, out_features=1000, bias=True)
    (_swish): Identity()
  )
  (fpn): TwoWayFpn(
    (conv_b_up_x4): Conv2d(40, 256, kernel_size=(1, 1), stride=(1, 1))
    (iabn_b_up_x4): InPlaceABN(256, eps=1e-05, momentum=0.1, affine=True, activation=leaky_relu[0.01])
    (conv_t_dn_x4): Conv2d(40, 256, kernel_size=(1, 1), stride=(1, 1))
    (iabn_t_dn_x4): InPlaceABN(256, eps=1e-05, momentum=0.1, affine=True, activation=leaky_relu[0.01])
    (conv_b_up_x8): Conv2d(64, 256, kernel_size=(1, 1), stride=(1, 1))
    (iabn_b_up_x8): InPlaceABN(256, eps=1e-05, momentum=0.1, affine=True, activation=leaky_relu[0.01])
    (conv_t_dn_x8): Conv2d(64, 256, kernel_size=(1, 1), stride=(1, 1))
    (iabn_t_dn_x8): InPlaceABN(256, eps=1e-05, momentum=0.1, affine=True, activation=leaky_relu[0.01])
    (conv_b_up_x16): Conv2d(176, 256, kernel_size=(1, 1), stride=(1, 1))
    (iabn_b_up_x16): InPlaceABN(256, eps=1e-05, momentum=0.1, affine=True, activation=leaky_relu[0.01])
    (conv_t_dn_x16): Conv2d(176, 256, kernel_size=(1, 1), stride=(1, 1))
    (iabn_t_dn_x16): InPlaceABN(256, eps=1e-05, momentum=0.1, affine=True, activation=leaky_relu[0.01])
    (conv_b_up_x32): Conv2d(2048, 256, kernel_size=(1, 1), stride=(1, 1))
    (iabn_b_up_x32): InPlaceABN(256, eps=1e-05, momentum=0.1, affine=True, activation=leaky_relu[0.01])
    (conv_t_dn_x32): Conv2d(2048, 256, kernel_size=(1, 1), stride=(1, 1))
    (iabn_t_dn_x32): InPlaceABN(256, eps=1e-05, momentum=0.1, affine=True, activation=leaky_relu[0.01])
    (depth_wise_conv_x4): DepthwiseSeparableConv(
      (depthwise_conv): Conv2d(256, 256, kernel_size=(3, 3), stride=(1, 1), padding=(1, 1), groups=256)
      (iabn): BatchNorm2d(256, eps=1e-05, momentum=0.1, affine=True, track_running_stats=True)
      (pointwise_conv): Conv2d(256, 256, kernel_size=(1, 1), stride=(1, 1))
    )
    (iabn_out_x4): InPlaceABN(256, eps=1e-05, momentum=0.1, affine=True, activation=leaky_relu[0.01])
    (depth_wise_conv_x8): DepthwiseSeparableConv(
      (depthwise_conv): Conv2d(256, 256, kernel_size=(3, 3), stride=(1, 1), padding=(1, 1), groups=256)
      (iabn): BatchNorm2d(256, eps=1e-05, momentum=0.1, affine=True, track_running_stats=True)
      (pointwise_conv): Conv2d(256, 256, kernel_size=(1, 1), stride=(1, 1))
    )
    (iabn_out_x8): InPlaceABN(256, eps=1e-05, momentum=0.1, affine=True, activation=leaky_relu[0.01])
    (depth_wise_conv_x16): DepthwiseSeparableConv(
      (depthwise_conv): Conv2d(256, 256, kernel_size=(3, 3), stride=(1, 1), padding=(1, 1), groups=256)
      (iabn): BatchNorm2d(256, eps=1e-05, momentum=0.1, affine=True, track_running_stats=True)
      (pointwise_conv): Conv2d(256, 256, kernel_size=(1, 1), stride=(1, 1))
    )
    (iabn_out_x16): InPlaceABN(256, eps=1e-05, momentum=0.1, affine=True, activation=leaky_relu[0.01])
    (depth_wise_conv_x32): DepthwiseSeparableConv(
      (depthwise_conv): Conv2d(256, 256, kernel_size=(3, 3), stride=(1, 1), padding=(1, 1), groups=256)
      (iabn): BatchNorm2d(256, eps=1e-05, momentum=0.1, affine=True, track_running_stats=True)
      (pointwise_conv): Conv2d(256, 256, kernel_size=(1, 1), stride=(1, 1))
    )
    (iabn_out_x32): InPlaceABN(256, eps=1e-05, momentum=0.1, affine=True, activation=leaky_relu[0.01])
  )
  (semantic_head): SemanticHead(
    (dpc_x32): DPC(
      (conv_first): DepthwiseSeparableConv(
        (depthwise_conv): Conv2d(256, 256, kernel_size=(3, 3), stride=(1, 1), padding=(1, 6), dilation=(1, 6), groups=256)
        (iabn): BatchNorm2d(256, eps=1e-05, momentum=0.1, affine=True, track_running_stats=True)
        (pointwise_conv): Conv2d(256, 256, kernel_size=(1, 1), stride=(1, 1))
      )
      (iabn_first): BatchNorm2d(256, eps=1e-05, momentum=0.1, affine=True, track_running_stats=True)
      (conv_branch_1): DepthwiseSeparableConv(
        (depthwise_conv): Conv2d(256, 256, kernel_size=(3, 3), stride=(1, 1), padding=(1, 1), groups=256)
        (iabn): BatchNorm2d(256, eps=1e-05, momentum=0.1, affine=True, track_running_stats=True)
        (pointwise_conv): Conv2d(256, 256, kernel_size=(1, 1), stride=(1, 1))
      )
      (iabn_branch_1): BatchNorm2d(256, eps=1e-05, momentum=0.1, affine=True, track_running_stats=True)
      (conv_branch_2): DepthwiseSeparableConv(
        (depthwise_conv): Conv2d(256, 256, kernel_size=(3, 3), stride=(1, 1), padding=(6, 21), dilation=(6, 21), groups=256)
        (iabn): BatchNorm2d(256, eps=1e-05, momentum=0.1, affine=True, track_running_stats=True)
        (pointwise_conv): Conv2d(256, 256, kernel_size=(1, 1), stride=(1, 1))
      )
      (iabn_branch_2): BatchNorm2d(256, eps=1e-05, momentum=0.1, affine=True, track_running_stats=True)
      (conv_branch_3): DepthwiseSeparableConv(
        (depthwise_conv): Conv2d(256, 256, kernel_size=(3, 3), stride=(1, 1), padding=(18, 15), dilation=(18, 15), groups=256)
        (iabn): BatchNorm2d(256, eps=1e-05, momentum=0.1, affine=True, track_running_stats=True)
        (pointwise_conv): Conv2d(256, 256, kernel_size=(1, 1), stride=(1, 1))
      )
      (iabn_branch_3): BatchNorm2d(256, eps=1e-05, momentum=0.1, affine=True, track_running_stats=True)
      (conv_branch_4): DepthwiseSeparableConv(
        (depthwise_conv): Conv2d(256, 256, kernel_size=(3, 3), stride=(1, 1), padding=(6, 3), dilation=(6, 3), groups=256)
        (iabn): BatchNorm2d(256, eps=1e-05, momentum=0.1, affine=True, track_running_stats=True)
        (pointwise_conv): Conv2d(256, 256, kernel_size=(1, 1), stride=(1, 1))
      )
      (iabn_branch_4): BatchNorm2d(256, eps=1e-05, momentum=0.1, affine=True, track_running_stats=True)
      (conv_last): Conv2d(1280, 128, kernel_size=(1, 1), stride=(1, 1))
      (iabn_last): BatchNorm2d(128, eps=1e-05, momentum=0.1, affine=True, track_running_stats=True)
    )
    (dpc_x16): DPC(
      (conv_first): DepthwiseSeparableConv(
        (depthwise_conv): Conv2d(256, 256, kernel_size=(3, 3), stride=(1, 1), padding=(1, 6), dilation=(1, 6), groups=256)
        (iabn): BatchNorm2d(256, eps=1e-05, momentum=0.1, affine=True, track_running_stats=True)
        (pointwise_conv): Conv2d(256, 256, kernel_size=(1, 1), stride=(1, 1))
      )
      (iabn_first): BatchNorm2d(256, eps=1e-05, momentum=0.1, affine=True, track_running_stats=True)
      (conv_branch_1): DepthwiseSeparableConv(
        (depthwise_conv): Conv2d(256, 256, kernel_size=(3, 3), stride=(1, 1), padding=(1, 1), groups=256)
        (iabn): BatchNorm2d(256, eps=1e-05, momentum=0.1, affine=True, track_running_stats=True)
        (pointwise_conv): Conv2d(256, 256, kernel_size=(1, 1), stride=(1, 1))
      )
      (iabn_branch_1): BatchNorm2d(256, eps=1e-05, momentum=0.1, affine=True, track_running_stats=True)
      (conv_branch_2): DepthwiseSeparableConv(
        (depthwise_conv): Conv2d(256, 256, kernel_size=(3, 3), stride=(1, 1), padding=(6, 21), dilation=(6, 21), groups=256)
        (iabn): BatchNorm2d(256, eps=1e-05, momentum=0.1, affine=True, track_running_stats=True)
        (pointwise_conv): Conv2d(256, 256, kernel_size=(1, 1), stride=(1, 1))
      )
      (iabn_branch_2): BatchNorm2d(256, eps=1e-05, momentum=0.1, affine=True, track_running_stats=True)
      (conv_branch_3): DepthwiseSeparableConv(
        (depthwise_conv): Conv2d(256, 256, kernel_size=(3, 3), stride=(1, 1), padding=(18, 15), dilation=(18, 15), groups=256)
        (iabn): BatchNorm2d(256, eps=1e-05, momentum=0.1, affine=True, track_running_stats=True)
        (pointwise_conv): Conv2d(256, 256, kernel_size=(1, 1), stride=(1, 1))
      )
      (iabn_branch_3): BatchNorm2d(256, eps=1e-05, momentum=0.1, affine=True, track_running_stats=True)
      (conv_branch_4): DepthwiseSeparableConv(
        (depthwise_conv): Conv2d(256, 256, kernel_size=(3, 3), stride=(1, 1), padding=(6, 3), dilation=(6, 3), groups=256)
        (iabn): BatchNorm2d(256, eps=1e-05, momentum=0.1, affine=True, track_running_stats=True)
        (pointwise_conv): Conv2d(256, 256, kernel_size=(1, 1), stride=(1, 1))
      )
      (iabn_branch_4): BatchNorm2d(256, eps=1e-05, momentum=0.1, affine=True, track_running_stats=True)
      (conv_last): Conv2d(1280, 128, kernel_size=(1, 1), stride=(1, 1))
      (iabn_last): BatchNorm2d(128, eps=1e-05, momentum=0.1, affine=True, track_running_stats=True)
    )
    (lsfe_x8): LSFE(
      (conv_1): DepthwiseSeparableConv(
        (depthwise_conv): Conv2d(256, 256, kernel_size=(3, 3), stride=(1, 1), padding=(1, 1), groups=256)
        (iabn): BatchNorm2d(256, eps=1e-05, momentum=0.1, affine=True, track_running_stats=True)
        (pointwise_conv): Conv2d(256, 128, kernel_size=(1, 1), stride=(1, 1))
      )
      (conv_2): DepthwiseSeparableConv(
        (depthwise_conv): Conv2d(128, 128, kernel_size=(3, 3), stride=(1, 1), padding=(1, 1), groups=128)
        (iabn): BatchNorm2d(128, eps=1e-05, momentum=0.1, affine=True, track_running_stats=True)
        (pointwise_conv): Conv2d(128, 128, kernel_size=(1, 1), stride=(1, 1))
      )
      (abn_1): BatchNorm2d(128, eps=1e-05, momentum=0.1, affine=True, track_running_stats=True)
      (abn_2): BatchNorm2d(128, eps=1e-05, momentum=0.1, affine=True, track_running_stats=True)
    )
    (lsfe_x4): LSFE(
      (conv_1): DepthwiseSeparableConv(
        (depthwise_conv): Conv2d(256, 256, kernel_size=(3, 3), stride=(1, 1), padding=(1, 1), groups=256)
        (iabn): BatchNorm2d(256, eps=1e-05, momentum=0.1, affine=True, track_running_stats=True)
        (pointwise_conv): Conv2d(256, 128, kernel_size=(1, 1), stride=(1, 1))
      )
      (conv_2): DepthwiseSeparableConv(
        (depthwise_conv): Conv2d(128, 128, kernel_size=(3, 3), stride=(1, 1), padding=(1, 1), groups=128)
        (iabn): BatchNorm2d(128, eps=1e-05, momentum=0.1, affine=True, track_running_stats=True)
        (pointwise_conv): Conv2d(128, 128, kernel_size=(1, 1), stride=(1, 1))
      )
      (abn_1): BatchNorm2d(128, eps=1e-05, momentum=0.1, affine=True, track_running_stats=True)
      (abn_2): BatchNorm2d(128, eps=1e-05, momentum=0.1, affine=True, track_running_stats=True)
    )
    (mc_16_to_8): MC(
      (conv_1): DepthwiseSeparableConv(
        (depthwise_conv): Conv2d(128, 128, kernel_size=(3, 3), stride=(1, 1), padding=(1, 1), groups=128)
        (iabn): BatchNorm2d(128, eps=1e-05, momentum=0.1, affine=True, track_running_stats=True)
        (pointwise_conv): Conv2d(128, 128, kernel_size=(1, 1), stride=(1, 1))
      )
      (conv_2): DepthwiseSeparableConv(
        (depthwise_conv): Conv2d(128, 128, kernel_size=(3, 3), stride=(1, 1), padding=(1, 1), groups=128)
        (iabn): BatchNorm2d(128, eps=1e-05, momentum=0.1, affine=True, track_running_stats=True)
        (pointwise_conv): Conv2d(128, 128, kernel_size=(1, 1), stride=(1, 1))
      )
      (abn_1): BatchNorm2d(128, eps=1e-05, momentum=0.1, affine=True, track_running_stats=True)
      (abn_2): BatchNorm2d(128, eps=1e-05, momentum=0.1, affine=True, track_running_stats=True)
    )
    (mc_8_to_4): MC(
      (conv_1): DepthwiseSeparableConv(
        (depthwise_conv): Conv2d(128, 128, kernel_size=(3, 3), stride=(1, 1), padding=(1, 1), groups=128)
        (iabn): BatchNorm2d(128, eps=1e-05, momentum=0.1, affine=True, track_running_stats=True)
        (pointwise_conv): Conv2d(128, 128, kernel_size=(1, 1), stride=(1, 1))
      )
      (conv_2): DepthwiseSeparableConv(
        (depthwise_conv): Conv2d(128, 128, kernel_size=(3, 3), stride=(1, 1), padding=(1, 1), groups=128)
        (iabn): BatchNorm2d(128, eps=1e-05, momentum=0.1, affine=True, track_running_stats=True)
        (pointwise_conv): Conv2d(128, 128, kernel_size=(1, 1), stride=(1, 1))
      )
      (abn_1): BatchNorm2d(128, eps=1e-05, momentum=0.1, affine=True, track_running_stats=True)
      (abn_2): BatchNorm2d(128, eps=1e-05, momentum=0.1, affine=True, track_running_stats=True)
    )
    (last_conv): Conv2d(512, 19, kernel_size=(1, 1), stride=(1, 1))
    (softmax): Softmax(dim=1)
    (cross_entropy_loss): CrossEntropyLoss()
  )
  (instance_head): InstanceHead(
    (rpn): RPNCustom(
      (rpn_head): DepthwiseSepRPNHead(
        (conv): DepthwiseSeparableConv(
          (depthwise_conv): Conv2d(256, 256, kernel_size=(3, 3), stride=(1, 1), padding=(1, 1), groups=256)
          (iabn): BatchNorm2d(256, eps=1e-05, momentum=0.1, affine=True, track_running_stats=True)
          (pointwise_conv): Conv2d(256, 256, kernel_size=(1, 1), stride=(1, 1))
        )
        (objectness_logits): Conv2d(256, 3, kernel_size=(1, 1), stride=(1, 1))
        (anchor_deltas): Conv2d(256, 12, kernel_size=(1, 1), stride=(1, 1))
        (iabn): InPlaceABN(256, eps=1e-05, momentum=0.1, affine=True, activation=leaky_relu[0.01])
      )
      (anchor_generator): DefaultAnchorGenerator(
        (cell_anchors): BufferList()
      )
    )
    (roi_heads): CustomROIHeads(
      (box_pooler): ROIPooler(
        (level_poolers): ModuleList(
          (0): ROIAlign(output_size=(7, 7), spatial_scale=0.25, sampling_ratio=2, aligned=False)
          (1): ROIAlign(output_size=(7, 7), spatial_scale=0.125, sampling_ratio=2, aligned=False)
          (2): ROIAlign(output_size=(7, 7), spatial_scale=0.0625, sampling_ratio=2, aligned=False)
          (3): ROIAlign(output_size=(7, 7), spatial_scale=0.03125, sampling_ratio=2, aligned=False)
        )
      )
      (box_head): BboxNetwork(
        (flatten): Flatten(start_dim=1, end_dim=-1)
        (first_fc): Linear(in_features=12544, out_features=1024, bias=True)
        (first_iabn): InPlaceABN(1024, eps=1e-05, momentum=0.1, affine=True, activation=leaky_relu[0.01])
        (second_fc): Linear(in_features=1024, out_features=1024, bias=True)
        (second_iabn): InPlaceABN(1024, eps=1e-05, momentum=0.1, affine=True, activation=leaky_relu[0.01])
      )
      (box_predictor): FastRCNNOutputLayers(
        (cls_score): Linear(in_features=1024, out_features=9, bias=True)
        (bbox_pred): Linear(in_features=1024, out_features=32, bias=True)
      )
      (mask_pooler): ROIPooler(
        (level_poolers): ModuleList(
          (0): ROIAlign(output_size=(14, 14), spatial_scale=0.25, sampling_ratio=2, aligned=False)
          (1): ROIAlign(output_size=(14, 14), spatial_scale=0.125, sampling_ratio=2, aligned=False)
          (2): ROIAlign(output_size=(14, 14), spatial_scale=0.0625, sampling_ratio=2, aligned=False)
          (3): ROIAlign(output_size=(14, 14), spatial_scale=0.03125, sampling_ratio=2, aligned=False)
        )
      )
      (mask_head): MaskNetwork(
        (conv_iabn_layers): ModuleList(
          (0): DepthwiseSeparableConv(
            (depthwise_conv): Conv2d(256, 256, kernel_size=(3, 3), stride=(1, 1), padding=(1, 1), groups=256)
            (iabn): BatchNorm2d(256, eps=1e-05, momentum=0.1, affine=True, track_running_stats=True)
            (pointwise_conv): Conv2d(256, 256, kernel_size=(1, 1), stride=(1, 1))
          )
          (1): InPlaceABN(256, eps=1e-05, momentum=0.1, affine=True, activation=leaky_relu[0.01])
          (2): DepthwiseSeparableConv(
            (depthwise_conv): Conv2d(256, 256, kernel_size=(3, 3), stride=(1, 1), padding=(1, 1), groups=256)
            (iabn): BatchNorm2d(256, eps=1e-05, momentum=0.1, affine=True, track_running_stats=True)
            (pointwise_conv): Conv2d(256, 256, kernel_size=(1, 1), stride=(1, 1))
          )
          (3): InPlaceABN(256, eps=1e-05, momentum=0.1, affine=True, activation=leaky_relu[0.01])
          (4): DepthwiseSeparableConv(
            (depthwise_conv): Conv2d(256, 256, kernel_size=(3, 3), stride=(1, 1), padding=(1, 1), groups=256)
            (iabn): BatchNorm2d(256, eps=1e-05, momentum=0.1, affine=True, track_running_stats=True)
            (pointwise_conv): Conv2d(256, 256, kernel_size=(1, 1), stride=(1, 1))
          )
          (5): InPlaceABN(256, eps=1e-05, momentum=0.1, affine=True, activation=leaky_relu[0.01])
          (6): DepthwiseSeparableConv(
            (depthwise_conv): Conv2d(256, 256, kernel_size=(3, 3), stride=(1, 1), padding=(1, 1), groups=256)
            (iabn): BatchNorm2d(256, eps=1e-05, momentum=0.1, affine=True, track_running_stats=True)
            (pointwise_conv): Conv2d(256, 256, kernel_size=(1, 1), stride=(1, 1))
          )
          (7): InPlaceABN(256, eps=1e-05, momentum=0.1, affine=True, activation=leaky_relu[0.01])
        )
        (deconv): ConvTranspose2d(256, 256, kernel_size=(2, 2), stride=(2, 2))
        (last_iabn): InPlaceABN(256, eps=1e-05, momentum=0.1, affine=True, activation=leaky_relu[0.01])
        (last_conv): Conv2d(256, 9, kernel_size=(1, 1), stride=(1, 1))
      )
    )
  )
)>
MODEL:
  ANCHOR_GENERATOR:
    SIZES: [[32], [64], [128], [256]]  # One size for each in feature map
    ASPECT_RATIOS: [[0.5, 1.0, 2.0]]  # Three aspect ratios (same for all in feature maps)
  PROPOSAL_GENERATOR:
    NAME: "RPNCustom"
  RPN:
    HEAD_NAME: "DepthwiseSepRPNHead" # Normal RPN Head "StandardRPNHead"
    IN_FEATURES: ["P_4", "P_8", "P_16", "P_32"]
…
          3072, 512, kernel_size=(1, 1), stride=(1, 1), bias=False
          (static_padding): Identity()
        )
        (_bn2): InPlaceABN(512, eps=0.001, momentum=0.1, affine=True, activation=leaky_relu[0.01])
        (_swish): Identity()
      )
    )
    (_conv_head): Conv2dStaticSamePadding(
      512, 2048, kernel_size=(1, 1), stride=(1, 1), bias=False
      (static_padding): Identity()
    )
    (_bn1): InPlaceABN(2048, eps=0.001, momentum=0.1, affine=True, activation=leaky_relu[0.01])
    (_avg_pooling): AdaptiveAvgPool2d(output_size=1)
    (_dropout): Dropout(p=0.4, inplace=False)
    (_fc): Linear(in_features=2048, out_features=1000, bias=True)
    (_swish): Identity()
  )
  (fpn): TwoWayFpn(
    (conv_b_up_x4): Conv2d(40, 256, kernel_size=(1, 1), stride=(1, 1))
    (iabn_b_up_x4): InPlaceABN(256, eps=1e-05, momentum=0.1, affine=True, activation=leaky_relu[0.01])
    (conv_t_dn_x4): Conv2d(40, 256, kernel_size=(1, 1), stride=(1, 1))
    (iabn_t_dn_x4): InPlaceABN(256, eps=1e-05, momentum=0.1, affine=True, activation=leaky_relu[0.01])
    (conv_b_up_x8): Conv2d(64, 256, kernel_size=(1, 1), stride=(1, 1))
    (iabn_b_up_x8): InPlaceABN(256, eps=1e-05, momentum=0.1, affine=True, activation=leaky_relu[0.01])
    (conv_t_dn_x8): Conv2d(64, 256, kernel_size=(1, 1), stride=(1, 1))
    (iabn_t_dn_x8): InPlaceABN(256, eps=1e-05, momentum=0.1, affine=True, activation=leaky_relu[0.01])
    (conv_b_up_x16): Conv2d(176, 256, kernel_size=(1, 1), stride=(1, 1))
    (iabn_b_up_x16): InPlaceABN(256, eps=1e-05, momentum=0.1, affine=True, activation=leaky_relu[0.01])
    (conv_t_dn_x16): Conv2d(176, 256, kernel_size=(1, 1), stride=(1, 1))
    (iabn_t_dn_x16): InPlaceABN(256, eps=1e-05, momentum=0.1, affine=True, activation=leaky_relu[0.01])
    (conv_b_up_x32): Conv2d(2048, 256, kernel_size=(1, 1), stride=(1, 1))
    (iabn_b_up_x32): InPlaceABN(256, eps=1e-05, momentum=0.1, affine=True, activation=leaky_relu[0.01])
    (conv_t_dn_x32): Conv2d(2048, 256, kernel_size=(1, 1), stride=(1, 1))
    (iabn_t_dn_x32): InPlaceABN(256, eps=1e-05, momentum=0.1, affine=True, activation=leaky_relu[0.01])
    (depth_wise_conv_x4): DepthwiseSeparableConv(
      (depthwise_conv): Conv2d(256, 256, kernel_size=(3, 3), stride=(1, 1), padding=(1, 1), groups=256)
      (iabn): InPlaceABN(256, eps=1e-05, momentum=0.1, affine=True, activation=leaky_relu[0.01])
      (pointwise_conv): Conv2d(256, 256, kernel_size=(1, 1), stride=(1, 1))
    )
    (iabn_out_x4): InPlaceABN(256, eps=1e-05, momentum=0.1, affine=True, activation=leaky_relu[0.01])
    (depth_wise_conv_x8): DepthwiseSeparableConv(
      (depthwise_conv): Conv2d(256, 256, kernel_size=(3, 3), stride=(1, 1), padding=(1, 1), groups=256)
      (iabn): InPlaceABN(256, eps=1e-05, momentum=0.1, affine=True, activation=leaky_relu[0.01])
      (pointwise_conv): Conv2d(256, 256, kernel_size=(1, 1), stride=(1, 1))
    )
    (iabn_out_x8): InPlaceABN(256, eps=1e-05, momentum=0.1, affine=True, activation=leaky_relu[0.01])
    (depth_wise_conv_x16): DepthwiseSeparableConv(
      (depthwise_conv): Conv2d(256, 256, kernel_size=(3, 3), stride=(1, 1), padding=(1, 1), groups=256)
      (iabn): InPlaceABN(256, eps=1e-05, momentum=0.1, affine=True, activation=leaky_relu[0.01])
      (pointwise_conv): Conv2d(256, 256, kernel_size=(1, 1), stride=(1, 1))
    )
    (iabn_out_x16): InPlaceABN(256, eps=1e-05, momentum=0.1, affine=True, activation=leaky_relu[0.01])
    (depth_wise_conv_x32): DepthwiseSeparableConv(
      (depthwise_conv): Conv2d(256, 256, kernel_size=(3, 3), stride=(1, 1), padding=(1, 1), groups=256)
      (iabn): InPlaceABN(256, eps=1e-05, momentum=0.1, affine=True, activation=leaky_relu[0.01])
      (pointwise_conv): Conv2d(256, 256, kernel_size=(1, 1), stride=(1, 1))
    )
    (iabn_out_x32): InPlaceABN(256, eps=1e-05, momentum=0.1, affine=True, activation=leaky_relu[0.01])
  )
  (semantic_head): SemanticHead(
    (dpc_x32): DPC(
      (conv_first): DepthwiseSeparableConv(
        (depthwise_conv): Conv2d(256, 256, kernel_size=(3, 3), stride=(1, 1), padding=(1, 6), dilation=(1, 6), groups=256)
        (iabn): InPlaceABN(256, eps=1e-05, momentum=0.1, affine=True, activation=leaky_relu[0.01])
        (pointwise_conv): Conv2d(256, 256, kernel_size=(1, 1), stride=(1, 1))
      )
      (iabn_first): BatchNorm2d(256, eps=1e-05, momentum=0.1, affine=True, track_running_stats=True)
      (conv_branch_1): DepthwiseSeparableConv(
        (depthwise_conv): Conv2d(256, 256, kernel_size=(3, 3), stride=(1, 1), padding=(1, 1), groups=256)
        (iabn): InPlaceABN(256, eps=1e-05, momentum=0.1, affine=True, activation=leaky_relu[0.01])
        (pointwise_conv): Conv2d(256, 256, kernel_size=(1, 1), stride=(1, 1))
      )
      (iabn_branch_1): BatchNorm2d(256, eps=1e-05, momentum=0.1, affine=True, track_running_stats=True)
      (conv_branch_2): DepthwiseSeparableConv(
        (depthwise_conv): Conv2d(256, 256, kernel_size=(3, 3), stride=(1, 1), padding=(6, 21), dilation=(6, 21), groups=256)
        (iabn): InPlaceABN(256, eps=1e-05, momentum=0.1, affine=True, activation=leaky_relu[0.01])
        (pointwise_conv): Conv2d(256, 256, kernel_size=(1, 1), stride=(1, 1))
      )
      (iabn_branch_2): BatchNorm2d(256, eps=1e-05, momentum=0.1, affine=True, track_running_stats=True)
      (conv_branch_3): DepthwiseSeparableConv(
        (depthwise_conv): Conv2d(256, 256, kernel_size=(3, 3), stride=(1, 1), padding=(18, 15), dilation=(18, 15), groups=256)
        (iabn): InPlaceABN(256, eps=1e-05, momentum=0.1, affine=True, activation=leaky_relu[0.01])
        (pointwise_conv): Conv2d(256, 256, kernel_size=(1, 1), stride=(1, 1))
      )
      (iabn_branch_3): BatchNorm2d(256, eps=1e-05, momentum=0.1, affine=True, track_running_stats=True)
      (conv_branch_4): DepthwiseSeparableConv(
        (depthwise_conv): Conv2d(256, 256, kernel_size=(3, 3), stride=(1, 1), padding=(6, 3), dilation=(6, 3), groups=256)
        (iabn): InPlaceABN(256, eps=1e-05, momentum=0.1, affine=True, activation=leaky_relu[0.01])
        (pointwise_conv): Conv2d(256, 256, kernel_size=(1, 1), stride=(1, 1))
      )
      (iabn_branch_4): BatchNorm2d(256, eps=1e-05, momentum=0.1, affine=True, track_running_stats=True)
      (conv_last): Conv2d(1280, 128, kernel_size=(1, 1), stride=(1, 1))
      (iabn_last): BatchNorm2d(128, eps=1e-05, momentum=0.1, affine=True, track_running_stats=True)
    )
    (dpc_x16): DPC(
      (conv_first): DepthwiseSeparableConv(
        (depthwise_conv): Conv2d(256, 256, kernel_size=(3, 3), stride=(1, 1), padding=(1, 6), dilation=(1, 6), groups=256)
        (iabn): InPlaceABN(256, eps=1e-05, momentum=0.1, affine=True, activation=leaky_relu[0.01])
        (pointwise_conv): Conv2d(256, 256, kernel_size=(1, 1), stride=(1, 1))
      )
      (iabn_first): BatchNorm2d(256, eps=1e-05, momentum=0.1, affine=True, track_running_stats=True)
      (conv_branch_1): DepthwiseSeparableConv(
        (depthwise_conv): Conv2d(256, 256, kernel_size=(3, 3), stride=(1, 1), padding=(1, 1), groups=256)
        (iabn): InPlaceABN(256, eps=1e-05, momentum=0.1, affine=True, activation=leaky_relu[0.01])
        (pointwise_conv): Conv2d(256, 256, kernel_size=(1, 1), stride=(1, 1))
      )
      (iabn_branch_1): BatchNorm2d(256, eps=1e-05, momentum=0.1, affine=True, track_running_stats=True)
      (conv_branch_2): DepthwiseSeparableConv(
        (depthwise_conv): Conv2d(256, 256, kernel_size=(3, 3), stride=(1, 1), padding=(6, 21), dilation=(6, 21), groups=256)
        (iabn): InPlaceABN(256, eps=1e-05, momentum=0.1, affine=True, activation=leaky_relu[0.01])
        (pointwise_conv): Conv2d(256, 256, kernel_size=(1, 1), stride=(1, 1))
      )
      (iabn_branch_2): BatchNorm2d(256, eps=1e-05, momentum=0.1, affine=True, track_running_stats=True)
      (conv_branch_3): DepthwiseSeparableConv(
        (depthwise_conv): Conv2d(256, 256, kernel_size=(3, 3), stride=(1, 1), padding=(18, 15), dilation=(18, 15), groups=256)
        (iabn): InPlaceABN(256, eps=1e-05, momentum=0.1, affine=True, activation=leaky_relu[0.01])
        (pointwise_conv): Conv2d(256, 256, kernel_size=(1, 1), stride=(1, 1))
      )
      (iabn_branch_3): BatchNorm2d(256, eps=1e-05, momentum=0.1, affine=True, track_running_stats=True)
      (conv_branch_4): DepthwiseSeparableConv(
        (depthwise_conv): Conv2d(256, 256, kernel_size=(3, 3), stride=(1, 1), padding=(6, 3), dilation=(6, 3), groups=256)
        (iabn): InPlaceABN(256, eps=1e-05, momentum=0.1, affine=True, activation=leaky_relu[0.01])
        (pointwise_conv): Conv2d(256, 256, kernel_size=(1, 1), stride=(1, 1))
      )
      (iabn_branch_4): BatchNorm2d(256, eps=1e-05, momentum=0.1, affine=True, track_running_stats=True)
      (conv_last): Conv2d(1280, 128, kernel_size=(1, 1), stride=(1, 1))
      (iabn_last): BatchNorm2d(128, eps=1e-05, momentum=0.1, affine=True, track_running_stats=True)
    )
    (lsfe_x8): LSFE(
      (conv_1): DepthwiseSeparableConv(
        (depthwise_conv): Conv2d(256, 256, kernel_size=(3, 3), stride=(1, 1), padding=(1, 1), groups=256)
        (iabn): InPlaceABN(256, eps=1e-05, momentum=0.1, affine=True, activation=leaky_relu[0.01])
        (pointwise_conv): Conv2d(256, 128, kernel_size=(1, 1), stride=(1, 1))
      )
      (conv_2): DepthwiseSeparableConv(
        (depthwise_conv): Conv2d(128, 128, kernel_size=(3, 3), stride=(1, 1), padding=(1, 1), groups=128)
        (iabn): InPlaceABN(128, eps=1e-05, momentum=0.1, affine=True, activation=leaky_relu[0.01])
        (pointwise_conv): Conv2d(128, 128, kernel_size=(1, 1), stride=(1, 1))
      )
      (abn_1): BatchNorm2d(128, eps=1e-05, momentum=0.1, affine=True, track_running_stats=True)
      (abn_2): BatchNorm2d(128, eps=1e-05, momentum=0.1, affine=True, track_running_stats=True)
    )
    (lsfe_x4): LSFE(
      (conv_1): DepthwiseSeparableConv(
        (depthwise_conv): Conv2d(256, 256, kernel_size=(3, 3), stride=(1, 1), padding=(1, 1), groups=256)
        (iabn): InPlaceABN(256, eps=1e-05, momentum=0.1, affine=True, activation=leaky_relu[0.01])
        (pointwise_conv): Conv2d(256, 128, kernel_size=(1, 1), stride=(1, 1))
      )
      (conv_2): DepthwiseSeparableConv(
        (depthwise_conv): Conv2d(128, 128, kernel_size=(3, 3), stride=(1, 1), padding=(1, 1), groups=128)
        (iabn): InPlaceABN(128, eps=1e-05, momentum=0.1, affine=True, activation=leaky_relu[0.01])
        (pointwise_conv): Conv2d(128, 128, kernel_size=(1, 1), stride=(1, 1))
      )
      (abn_1): BatchNorm2d(128, eps=1e-05, momentum=0.1, affine=True, track_running_stats=True)
      (abn_2): BatchNorm2d(128, eps=1e-05, momentum=0.1, affine=True, track_running_stats=True)
    )
    (mc_16_to_8): MC(
      (conv_1): DepthwiseSeparableConv(
        (depthwise_conv): Conv2d(128, 128, kernel_size=(3, 3), stride=(1, 1), padding=(1, 1), groups=128)
        (iabn): InPlaceABN(128, eps=1e-05, momentum=0.1, affine=True, activation=leaky_relu[0.01])
        (pointwise_conv): Conv2d(128, 128, kernel_size=(1, 1), stride=(1, 1))
      )
      (conv_2): DepthwiseSeparableConv(
        (depthwise_conv): Conv2d(128, 128, kernel_size=(3, 3), stride=(1, 1), padding=(1, 1), groups=128)
        (iabn): InPlaceABN(128, eps=1e-05, momentum=0.1, affine=True, activation=leaky_relu[0.01])
        (pointwise_conv): Conv2d(128, 128, kernel_size=(1, 1), stride=(1, 1))
      )
      (abn_1): BatchNorm2d(128, eps=1e-05, momentum=0.1, affine=True, track_running_stats=True)
      (abn_2): BatchNorm2d(128, eps=1e-05, momentum=0.1, affine=True, track_running_stats=True)
    )
    (mc_8_to_4): MC(
      (conv_1): DepthwiseSeparableConv(
        (depthwise_conv): Conv2d(128, 128, kernel_size=(3, 3), stride=(1, 1), padding=(1, 1), groups=128)
        (iabn): InPlaceABN(128, eps=1e-05, momentum=0.1, affine=True, activation=leaky_relu[0.01])
        (pointwise_conv): Conv2d(128, 128, kernel_size=(1, 1), stride=(1, 1))
      )
      (conv_2): DepthwiseSeparableConv(
        (depthwise_conv): Conv2d(128, 128, kernel_size=(3, 3), stride=(1, 1), padding=(1, 1), groups=128)
        (iabn): InPlaceABN(128, eps=1e-05, momentum=0.1, affine=True, activation=leaky_relu[0.01])
        (pointwise_conv): Conv2d(128, 128, kernel_size=(1, 1), stride=(1, 1))
      )
      (abn_1): BatchNorm2d(128, eps=1e-05, momentum=0.1, affine=True, track_running_stats=True)
      (abn_2): BatchNorm2d(128, eps=1e-05, momentum=0.1, affine=True, track_running_stats=True)
    )
    (last_conv): Conv2d(512, 19, kernel_size=(1, 1), stride=(1, 1))
    (softmax): Softmax(dim=1)
    (cross_entropy_loss): CrossEntropyLoss()
  )
  (instance_head): InstanceHead(
    (rpn): RPNCustom(
      (rpn_head): DepthwiseSepRPNHead(
        (conv): DepthwiseSeparableConv(
          (depthwise_conv): Conv2d(256, 256, kernel_size=(3, 3), stride=(1, 1), padding=(1, 1), groups=256)
          (iabn): InPlaceABN(256, eps=1e-05, momentum=0.1, affine=True, activation=leaky_relu[0.01])
          (pointwise_conv): Conv2d(256, 256, kernel_size=(1, 1), stride=(1, 1))
        )
        (objectness_logits): Conv2d(256, 3, kernel_size=(1, 1), stride=(1, 1))
        (anchor_deltas): Conv2d(256, 12, kernel_size=(1, 1), stride=(1, 1))
        (iabn): InPlaceABN(256, eps=1e-05, momentum=0.1, affine=True, activation=leaky_relu[0.01])
      )
      (anchor_generator): DefaultAnchorGenerator(
        (cell_anchors): BufferList()
      )
    )
    (roi_heads): CustomROIHeads(
      (box_pooler): ROIPooler(
        (level_poolers): ModuleList(
          (0): ROIAlign(output_size=(7, 7), spatial_scale=0.25, sampling_ratio=2, aligned=False)
          (1): ROIAlign(output_size=(7, 7), spatial_scale=0.125, sampling_ratio=2, aligned=False)
          (2): ROIAlign(output_size=(7, 7), spatial_scale=0.0625, sampling_ratio=2, aligned=False)
          (3): ROIAlign(output_size=(7, 7), spatial_scale=0.03125, sampling_ratio=2, aligned=False)
        )
      )
      (box_head): BboxNetwork(
        (flatten): Flatten(start_dim=1, end_dim=-1)
        (first_fc): Linear(in_features=12544, out_features=1024, bias=True)
        (first_iabn): InPlaceABN(1024, eps=1e-05, momentum=0.1, affine=True, activation=leaky_relu[0.01])
        (second_fc): Linear(in_features=1024, out_features=1024, bias=True)
        (second_iabn): InPlaceABN(1024, eps=1e-05, momentum=0.1, affine=True, activation=leaky_relu[0.01])
      )
      (box_predictor): FastRCNNOutputLayers(
        (cls_score): Linear(in_features=1024, out_features=9, bias=True)
        (bbox_pred): Linear(in_features=1024, out_features=32, bias=True)
      )
      (mask_pooler): ROIPooler(
        (level_poolers): ModuleList(
          (0): ROIAlign(output_size=(14, 14), spatial_scale=0.25, sampling_ratio=2, aligned=False)
          (1): ROIAlign(output_size=(14, 14), spatial_scale=0.125, sampling_ratio=2, aligned=False)
          (2): ROIAlign(output_size=(14, 14), spatial_scale=0.0625, sampling_ratio=2, aligned=False)
          (3): ROIAlign(output_size=(14, 14), spatial_scale=0.03125, sampling_ratio=2, aligned=False)
        )
      )
      (mask_head): MaskNetwork(
        (conv_iabn_layers): ModuleList(
          (0): DepthwiseSeparableConv(
            (depthwise_conv): Conv2d(256, 256, kernel_size=(3, 3), stride=(1, 1), padding=(1, 1), groups=256)
            (iabn): InPlaceABN(256, eps=1e-05, momentum=0.1, affine=True, activation=leaky_relu[0.01])
            (pointwise_conv): Conv2d(256, 256, kernel_size=(1, 1), stride=(1, 1))
          )
          (1): InPlaceABN(256, eps=1e-05, momentum=0.1, affine=True, activation=leaky_relu[0.01])
          (2): DepthwiseSeparableConv(
            (depthwise_conv): Conv2d(256, 256, kernel_size=(3, 3), stride=(1, 1), padding=(1, 1), groups=256)
            (iabn): InPlaceABN(256, eps=1e-05, momentum=0.1, affine=True, activation=leaky_relu[0.01])
            (pointwise_conv): Conv2d(256, 256, kernel_size=(1, 1), stride=(1, 1))
          )
          (3): InPlaceABN(256, eps=1e-05, momentum=0.1, affine=True, activation=leaky_relu[0.01])
          (4): DepthwiseSeparableConv(
            (depthwise_conv): Conv2d(256, 256, kernel_size=(3, 3), stride=(1, 1), padding=(1, 1), groups=256)
            (iabn): InPlaceABN(256, eps=1e-05, momentum=0.1, affine=True, activation=leaky_relu[0.01])
            (pointwise_conv): Conv2d(256, 256, kernel_size=(1, 1), stride=(1, 1))
          )
          (5): InPlaceABN(256, eps=1e-05, momentum=0.1, affine=True, activation=leaky_relu[0.01])
          (6): DepthwiseSeparableConv(
            (depthwise_conv): Conv2d(256, 256, kernel_size=(3, 3), stride=(1, 1), padding=(1, 1), groups=256)
            (iabn): InPlaceABN(256, eps=1e-05, momentum=0.1, affine=True, activation=leaky_relu[0.01])
            (pointwise_conv): Conv2d(256, 256, kernel_size=(1, 1), stride=(1, 1))
          )
          (7): InPlaceABN(256, eps=1e-05, momentum=0.1, affine=True, activation=leaky_relu[0.01])
        )
        (deconv): ConvTranspose2d(256, 256, kernel_size=(2, 2), stride=(2, 2))
        (last_iabn): InPlaceABN(256, eps=1e-05, momentum=0.1, affine=True, activation=leaky_relu[0.01])
        (last_conv): Conv2d(256, 9, kernel_size=(1, 1), stride=(1, 1))
      )
    )
  )
)>
MODEL:
  ANCHOR_GENERATOR:
    SIZES: [[32], [64], [128], [256]]  # One size for each in feature map
    ASPECT_RATIOS: [[0.5, 1.0, 2.0]]  # Three aspect ratios (same for all in feature maps)
  PROPOSAL_GENERATOR:
    NAME: "RPNCustom"
  RPN:
    HEAD_NAME: "DepthwiseSepRPNHead" # Normal RPN Head "StandardRPNHead"
    IN_FEATURES: ["P_4", "P_8", "P_16", "P_32"]
…
          3072, 512, kernel_size=(1, 1), stride=(1, 1), bias=False
          (static_padding): Identity()
        )
        (_bn2): InPlaceABN(512, eps=0.001, momentum=0.1, affine=True, activation=leaky_relu[0.01])
        (_swish): Identity()
      )
    )
    (_conv_head): Conv2dStaticSamePadding(
      512, 2048, kernel_size=(1, 1), stride=(1, 1), bias=False
      (static_padding): Identity()
    )
    (_bn1): InPlaceABN(2048, eps=0.001, momentum=0.1, affine=True, activation=leaky_relu[0.01])
    (_avg_pooling): AdaptiveAvgPool2d(output_size=1)
    (_dropout): Dropout(p=0.4, inplace=False)
    (_fc): Linear(in_features=2048, out_features=1000, bias=True)
    (_swish): Identity()
  )
  (fpn): TwoWayFpn(
    (conv_b_up_x4): Conv2d(40, 256, kernel_size=(1, 1), stride=(1, 1))
    (iabn_b_up_x4): InPlaceABN(256, eps=1e-05, momentum=0.1, affine=True, activation=leaky_relu[0.01])
    (conv_t_dn_x4): Conv2d(40, 256, kernel_size=(1, 1), stride=(1, 1))
    (iabn_t_dn_x4): InPlaceABN(256, eps=1e-05, momentum=0.1, affine=True, activation=leaky_relu[0.01])
    (conv_b_up_x8): Conv2d(64, 256, kernel_size=(1, 1), stride=(1, 1))
    (iabn_b_up_x8): InPlaceABN(256, eps=1e-05, momentum=0.1, affine=True, activation=leaky_relu[0.01])
    (conv_t_dn_x8): Conv2d(64, 256, kernel_size=(1, 1), stride=(1, 1))
    (iabn_t_dn_x8): InPlaceABN(256, eps=1e-05, momentum=0.1, affine=True, activation=leaky_relu[0.01])
    (conv_b_up_x16): Conv2d(176, 256, kernel_size=(1, 1), stride=(1, 1))
    (iabn_b_up_x16): InPlaceABN(256, eps=1e-05, momentum=0.1, affine=True, activation=leaky_relu[0.01])
    (conv_t_dn_x16): Conv2d(176, 256, kernel_size=(1, 1), stride=(1, 1))
    (iabn_t_dn_x16): InPlaceABN(256, eps=1e-05, momentum=0.1, affine=True, activation=leaky_relu[0.01])
    (conv_b_up_x32): Conv2d(512, 256, kernel_size=(1, 1), stride=(1, 1))
    (iabn_b_up_x32): InPlaceABN(256, eps=1e-05, momentum=0.1, affine=True, activation=leaky_relu[0.01])
    (conv_t_dn_x32): Conv2d(512, 256, kernel_size=(1, 1), stride=(1, 1))
    (iabn_t_dn_x32): InPlaceABN(256, eps=1e-05, momentum=0.1, affine=True, activation=leaky_relu[0.01])
    (depth_wise_conv_x4): DepthwiseSeparableConv(
      (depthwise_conv): Conv2d(256, 256, kernel_size=(3, 3), stride=(1, 1), padding=(1, 1), groups=256)
      (iabn): InPlaceABN(256, eps=1e-05, momentum=0.1, affine=True, activation=leaky_relu[0.01])
      (pointwise_conv): Conv2d(256, 256, kernel_size=(1, 1), stride=(1, 1))
    )
    (iabn_out_x4): InPlaceABN(256, eps=1e-05, momentum=0.1, affine=True, activation=leaky_relu[0.01])
    (depth_wise_conv_x8): DepthwiseSeparableConv(
      (depthwise_conv): Conv2d(256, 256, kernel_size=(3, 3), stride=(1, 1), padding=(1, 1), groups=256)
      (iabn): InPlaceABN(256, eps=1e-05, momentum=0.1, affine=True, activation=leaky_relu[0.01])
      (pointwise_conv): Conv2d(256, 256, kernel_size=(1, 1), stride=(1, 1))
    )
    (iabn_out_x8): InPlaceABN(256, eps=1e-05, momentum=0.1, affine=True, activation=leaky_relu[0.01])
    (depth_wise_conv_x16): DepthwiseSeparableConv(
      (depthwise_conv): Conv2d(256, 256, kernel_size=(3, 3), stride=(1, 1), padding=(1, 1), groups=256)
      (iabn): InPlaceABN(256, eps=1e-05, momentum=0.1, affine=True, activation=leaky_relu[0.01])
      (pointwise_conv): Conv2d(256, 256, kernel_size=(1, 1), stride=(1, 1))
    )
    (iabn_out_x16): InPlaceABN(256, eps=1e-05, momentum=0.1, affine=True, activation=leaky_relu[0.01])
    (depth_wise_conv_x32): DepthwiseSeparableConv(
      (depthwise_conv): Conv2d(256, 256, kernel_size=(3, 3), stride=(1, 1), padding=(1, 1), groups=256)
      (iabn): InPlaceABN(256, eps=1e-05, momentum=0.1, affine=True, activation=leaky_relu[0.01])
      (pointwise_conv): Conv2d(256, 256, kernel_size=(1, 1), stride=(1, 1))
    )
    (iabn_out_x32): InPlaceABN(256, eps=1e-05, momentum=0.1, affine=True, activation=leaky_relu[0.01])
  )
  (semantic_head): SemanticHead(
    (dpc_x32): DPC(
      (conv_first): DepthwiseSeparableConv(
        (depthwise_conv): Conv2d(256, 256, kernel_size=(3, 3), stride=(1, 1), padding=(1, 6), dilation=(1, 6), groups=256)
        (iabn): InPlaceABN(256, eps=1e-05, momentum=0.1, affine=True, activation=leaky_relu[0.01])
        (pointwise_conv): Conv2d(256, 256, kernel_size=(1, 1), stride=(1, 1))
      )
      (iabn_first): BatchNorm2d(256, eps=1e-05, momentum=0.1, affine=True, track_running_stats=True)
      (conv_branch_1): DepthwiseSeparableConv(
        (depthwise_conv): Conv2d(256, 256, kernel_size=(3, 3), stride=(1, 1), padding=(1, 1), groups=256)
        (iabn): InPlaceABN(256, eps=1e-05, momentum=0.1, affine=True, activation=leaky_relu[0.01])
        (pointwise_conv): Conv2d(256, 256, kernel_size=(1, 1), stride=(1, 1))
      )
      (iabn_branch_1): BatchNorm2d(256, eps=1e-05, momentum=0.1, affine=True, track_running_stats=True)
      (conv_branch_2): DepthwiseSeparableConv(
        (depthwise_conv): Conv2d(256, 256, kernel_size=(3, 3), stride=(1, 1), padding=(6, 21), dilation=(6, 21), groups=256)
        (iabn): InPlaceABN(256, eps=1e-05, momentum=0.1, affine=True, activation=leaky_relu[0.01])
        (pointwise_conv): Conv2d(256, 256, kernel_size=(1, 1), stride=(1, 1))
      )
      (iabn_branch_2): BatchNorm2d(256, eps=1e-05, momentum=0.1, affine=True, track_running_stats=True)
      (conv_branch_3): DepthwiseSeparableConv(
        (depthwise_conv): Conv2d(256, 256, kernel_size=(3, 3), stride=(1, 1), padding=(18, 15), dilation=(18, 15), groups=256)
        (iabn): InPlaceABN(256, eps=1e-05, momentum=0.1, affine=True, activation=leaky_relu[0.01])
        (pointwise_conv): Conv2d(256, 256, kernel_size=(1, 1), stride=(1, 1))
      )
      (iabn_branch_3): BatchNorm2d(256, eps=1e-05, momentum=0.1, affine=True, track_running_stats=True)
      (conv_branch_4): DepthwiseSeparableConv(
        (depthwise_conv): Conv2d(256, 256, kernel_size=(3, 3), stride=(1, 1), padding=(6, 3), dilation=(6, 3), groups=256)
        (iabn): InPlaceABN(256, eps=1e-05, momentum=0.1, affine=True, activation=leaky_relu[0.01])
        (pointwise_conv): Conv2d(256, 256, kernel_size=(1, 1), stride=(1, 1))
      )
      (iabn_branch_4): BatchNorm2d(256, eps=1e-05, momentum=0.1, affine=True, track_running_stats=True)
      (conv_last): Conv2d(1280, 128, kernel_size=(1, 1), stride=(1, 1))
      (iabn_last): BatchNorm2d(128, eps=1e-05, momentum=0.1, affine=True, track_running_stats=True)
    )
    (dpc_x16): DPC(
      (conv_first): DepthwiseSeparableConv(
        (depthwise_conv): Conv2d(256, 256, kernel_size=(3, 3), stride=(1, 1), padding=(1, 6), dilation=(1, 6), groups=256)
        (iabn): InPlaceABN(256, eps=1e-05, momentum=0.1, affine=True, activation=leaky_relu[0.01])
        (pointwise_conv): Conv2d(256, 256, kernel_size=(1, 1), stride=(1, 1))
      )
      (iabn_first): BatchNorm2d(256, eps=1e-05, momentum=0.1, affine=True, track_running_stats=True)
      (conv_branch_1): DepthwiseSeparableConv(
        (depthwise_conv): Conv2d(256, 256, kernel_size=(3, 3), stride=(1, 1), padding=(1, 1), groups=256)
        (iabn): InPlaceABN(256, eps=1e-05, momentum=0.1, affine=True, activation=leaky_relu[0.01])
        (pointwise_conv): Conv2d(256, 256, kernel_size=(1, 1), stride=(1, 1))
      )
      (iabn_branch_1): BatchNorm2d(256, eps=1e-05, momentum=0.1, affine=True, track_running_stats=True)
      (conv_branch_2): DepthwiseSeparableConv(
        (depthwise_conv): Conv2d(256, 256, kernel_size=(3, 3), stride=(1, 1), padding=(6, 21), dilation=(6, 21), groups=256)
        (iabn): InPlaceABN(256, eps=1e-05, momentum=0.1, affine=True, activation=leaky_relu[0.01])
        (pointwise_conv): Conv2d(256, 256, kernel_size=(1, 1), stride=(1, 1))
      )
      (iabn_branch_2): BatchNorm2d(256, eps=1e-05, momentum=0.1, affine=True, track_running_stats=True)
      (conv_branch_3): DepthwiseSeparableConv(
        (depthwise_conv): Conv2d(256, 256, kernel_size=(3, 3), stride=(1, 1), padding=(18, 15), dilation=(18, 15), groups=256)
        (iabn): InPlaceABN(256, eps=1e-05, momentum=0.1, affine=True, activation=leaky_relu[0.01])
        (pointwise_conv): Conv2d(256, 256, kernel_size=(1, 1), stride=(1, 1))
      )
      (iabn_branch_3): BatchNorm2d(256, eps=1e-05, momentum=0.1, affine=True, track_running_stats=True)
      (conv_branch_4): DepthwiseSeparableConv(
        (depthwise_conv): Conv2d(256, 256, kernel_size=(3, 3), stride=(1, 1), padding=(6, 3), dilation=(6, 3), groups=256)
        (iabn): InPlaceABN(256, eps=1e-05, momentum=0.1, affine=True, activation=leaky_relu[0.01])
        (pointwise_conv): Conv2d(256, 256, kernel_size=(1, 1), stride=(1, 1))
      )
      (iabn_branch_4): BatchNorm2d(256, eps=1e-05, momentum=0.1, affine=True, track_running_stats=True)
      (conv_last): Conv2d(1280, 128, kernel_size=(1, 1), stride=(1, 1))
      (iabn_last): BatchNorm2d(128, eps=1e-05, momentum=0.1, affine=True, track_running_stats=True)
    )
    (lsfe_x8): LSFE(
      (conv_1): DepthwiseSeparableConv(
        (depthwise_conv): Conv2d(256, 256, kernel_size=(3, 3), stride=(1, 1), padding=(1, 1), groups=256)
        (iabn): InPlaceABN(256, eps=1e-05, momentum=0.1, affine=True, activation=leaky_relu[0.01])
        (pointwise_conv): Conv2d(256, 128, kernel_size=(1, 1), stride=(1, 1))
      )
      (conv_2): DepthwiseSeparableConv(
        (depthwise_conv): Conv2d(128, 128, kernel_size=(3, 3), stride=(1, 1), padding=(1, 1), groups=128)
        (iabn): InPlaceABN(128, eps=1e-05, momentum=0.1, affine=True, activation=leaky_relu[0.01])
        (pointwise_conv): Conv2d(128, 128, kernel_size=(1, 1), stride=(1, 1))
      )
      (abn_1): BatchNorm2d(128, eps=1e-05, momentum=0.1, affine=True, track_running_stats=True)
      (abn_2): BatchNorm2d(128, eps=1e-05, momentum=0.1, affine=True, track_running_stats=True)
    )
    (lsfe_x4): LSFE(
      (conv_1): DepthwiseSeparableConv(
        (depthwise_conv): Conv2d(256, 256, kernel_size=(3, 3), stride=(1, 1), padding=(1, 1), groups=256)
        (iabn): InPlaceABN(256, eps=1e-05, momentum=0.1, affine=True, activation=leaky_relu[0.01])
        (pointwise_conv): Conv2d(256, 128, kernel_size=(1, 1), stride=(1, 1))
      )
      (conv_2): DepthwiseSeparableConv(
        (depthwise_conv): Conv2d(128, 128, kernel_size=(3, 3), stride=(1, 1), padding=(1, 1), groups=128)
        (iabn): InPlaceABN(128, eps=1e-05, momentum=0.1, affine=True, activation=leaky_relu[0.01])
        (pointwise_conv): Conv2d(128, 128, kernel_size=(1, 1), stride=(1, 1))
      )
      (abn_1): BatchNorm2d(128, eps=1e-05, momentum=0.1, affine=True, track_running_stats=True)
      (abn_2): BatchNorm2d(128, eps=1e-05, momentum=0.1, affine=True, track_running_stats=True)
    )
    (mc_16_to_8): MC(
      (conv_1): DepthwiseSeparableConv(
        (depthwise_conv): Conv2d(128, 128, kernel_size=(3, 3), stride=(1, 1), padding=(1, 1), groups=128)
        (iabn): InPlaceABN(128, eps=1e-05, momentum=0.1, affine=True, activation=leaky_relu[0.01])
        (pointwise_conv): Conv2d(128, 128, kernel_size=(1, 1), stride=(1, 1))
      )
      (conv_2): DepthwiseSeparableConv(
        (depthwise_conv): Conv2d(128, 128, kernel_size=(3, 3), stride=(1, 1), padding=(1, 1), groups=128)
        (iabn): InPlaceABN(128, eps=1e-05, momentum=0.1, affine=True, activation=leaky_relu[0.01])
        (pointwise_conv): Conv2d(128, 128, kernel_size=(1, 1), stride=(1, 1))
      )
      (abn_1): BatchNorm2d(128, eps=1e-05, momentum=0.1, affine=True, track_running_stats=True)
      (abn_2): BatchNorm2d(128, eps=1e-05, momentum=0.1, affine=True, track_running_stats=True)
    )
    (mc_8_to_4): MC(
      (conv_1): DepthwiseSeparableConv(
        (depthwise_conv): Conv2d(128, 128, kernel_size=(3, 3), stride=(1, 1), padding=(1, 1), groups=128)
        (iabn): InPlaceABN(128, eps=1e-05, momentum=0.1, affine=True, activation=leaky_relu[0.01])
        (pointwise_conv): Conv2d(128, 128, kernel_size=(1, 1), stride=(1, 1))
      )
      (conv_2): DepthwiseSeparableConv(
        (depthwise_conv): Conv2d(128, 128, kernel_size=(3, 3), stride=(1, 1), padding=(1, 1), groups=128)
        (iabn): InPlaceABN(128, eps=1e-05, momentum=0.1, affine=True, activation=leaky_relu[0.01])
        (pointwise_conv): Conv2d(128, 128, kernel_size=(1, 1), stride=(1, 1))
      )
      (abn_1): BatchNorm2d(128, eps=1e-05, momentum=0.1, affine=True, track_running_stats=True)
      (abn_2): BatchNorm2d(128, eps=1e-05, momentum=0.1, affine=True, track_running_stats=True)
    )
    (last_conv): Conv2d(512, 19, kernel_size=(1, 1), stride=(1, 1))
    (softmax): Softmax(dim=1)
    (cross_entropy_loss): CrossEntropyLoss()
  )
  (instance_head): InstanceHead(
    (rpn): RPNCustom(
      (rpn_head): DepthwiseSepRPNHead(
        (conv): DepthwiseSeparableConv(
          (depthwise_conv): Conv2d(256, 256, kernel_size=(3, 3), stride=(1, 1), padding=(1, 1), groups=256)
          (iabn): InPlaceABN(256, eps=1e-05, momentum=0.1, affine=True, activation=leaky_relu[0.01])
          (pointwise_conv): Conv2d(256, 256, kernel_size=(1, 1), stride=(1, 1))
        )
        (objectness_logits): Conv2d(256, 3, kernel_size=(1, 1), stride=(1, 1))
        (anchor_deltas): Conv2d(256, 12, kernel_size=(1, 1), stride=(1, 1))
        (iabn): InPlaceABN(256, eps=1e-05, momentum=0.1, affine=True, activation=leaky_relu[0.01])
      )
      (anchor_generator): DefaultAnchorGenerator(
        (cell_anchors): BufferList()
      )
    )
    (roi_heads): CustomROIHeads(
      (box_pooler): ROIPooler(
        (level_poolers): ModuleList(
          (0): ROIAlign(output_size=(7, 7), spatial_scale=0.25, sampling_ratio=2, aligned=False)
          (1): ROIAlign(output_size=(7, 7), spatial_scale=0.125, sampling_ratio=2, aligned=False)
          (2): ROIAlign(output_size=(7, 7), spatial_scale=0.0625, sampling_ratio=2, aligned=False)
          (3): ROIAlign(output_size=(7, 7), spatial_scale=0.03125, sampling_ratio=2, aligned=False)
        )
      )
      (box_head): BboxNetwork(
        (flatten): Flatten(start_dim=1, end_dim=-1)
        (first_fc): Linear(in_features=12544, out_features=1024, bias=True)
        (first_iabn): InPlaceABN(1024, eps=1e-05, momentum=0.1, affine=True, activation=leaky_relu[0.01])
        (second_fc): Linear(in_features=1024, out_features=1024, bias=True)
        (second_iabn): InPlaceABN(1024, eps=1e-05, momentum=0.1, affine=True, activation=leaky_relu[0.01])
      )
      (box_predictor): FastRCNNOutputLayers(
        (cls_score): Linear(in_features=1024, out_features=9, bias=True)
        (bbox_pred): Linear(in_features=1024, out_features=32, bias=True)
      )
      (mask_pooler): ROIPooler(
        (level_poolers): ModuleList(
          (0): ROIAlign(output_size=(14, 14), spatial_scale=0.25, sampling_ratio=2, aligned=False)
          (1): ROIAlign(output_size=(14, 14), spatial_scale=0.125, sampling_ratio=2, aligned=False)
          (2): ROIAlign(output_size=(14, 14), spatial_scale=0.0625, sampling_ratio=2, aligned=False)
          (3): ROIAlign(output_size=(14, 14), spatial_scale=0.03125, sampling_ratio=2, aligned=False)
        )
      )
      (mask_head): MaskNetwork(
        (conv_iabn_layers): ModuleList(
          (0): DepthwiseSeparableConv(
            (depthwise_conv): Conv2d(256, 256, kernel_size=(3, 3), stride=(1, 1), padding=(1, 1), groups=256)
            (iabn): InPlaceABN(256, eps=1e-05, momentum=0.1, affine=True, activation=leaky_relu[0.01])
            (pointwise_conv): Conv2d(256, 256, kernel_size=(1, 1), stride=(1, 1))
          )
          (1): InPlaceABN(256, eps=1e-05, momentum=0.1, affine=True, activation=leaky_relu[0.01])
          (2): DepthwiseSeparableConv(
            (depthwise_conv): Conv2d(256, 256, kernel_size=(3, 3), stride=(1, 1), padding=(1, 1), groups=256)
            (iabn): InPlaceABN(256, eps=1e-05, momentum=0.1, affine=True, activation=leaky_relu[0.01])
            (pointwise_conv): Conv2d(256, 256, kernel_size=(1, 1), stride=(1, 1))
          )
          (3): InPlaceABN(256, eps=1e-05, momentum=0.1, affine=True, activation=leaky_relu[0.01])
          (4): DepthwiseSeparableConv(
            (depthwise_conv): Conv2d(256, 256, kernel_size=(3, 3), stride=(1, 1), padding=(1, 1), groups=256)
            (iabn): InPlaceABN(256, eps=1e-05, momentum=0.1, affine=True, activation=leaky_relu[0.01])
            (pointwise_conv): Conv2d(256, 256, kernel_size=(1, 1), stride=(1, 1))
          )
          (5): InPlaceABN(256, eps=1e-05, momentum=0.1, affine=True, activation=leaky_relu[0.01])
          (6): DepthwiseSeparableConv(
            (depthwise_conv): Conv2d(256, 256, kernel_size=(3, 3), stride=(1, 1), padding=(1, 1), groups=256)
            (iabn): InPlaceABN(256, eps=1e-05, momentum=0.1, affine=True, activation=leaky_relu[0.01])
            (pointwise_conv): Conv2d(256, 256, kernel_size=(1, 1), stride=(1, 1))
          )
          (7): InPlaceABN(256, eps=1e-05, momentum=0.1, affine=True, activation=leaky_relu[0.01])
        )
        (deconv): ConvTranspose2d(256, 256, kernel_size=(2, 2), stride=(2, 2))
        (last_iabn): InPlaceABN(256, eps=1e-05, momentum=0.1, affine=True, activation=leaky_relu[0.01])
        (last_conv): Conv2d(256, 9, kernel_size=(1, 1), stride=(1, 1))
      )
    )
  )
)>
MODEL:
  ANCHOR_GENERATOR:
    SIZES: [[32], [64], [128], [256]]  # One size for each in feature map
    ASPECT_RATIOS: [[0.5, 1.0, 2.0]]  # Three aspect ratios (same for all in feature maps)
  PROPOSAL_GENERATOR:
    NAME: "RPNCustom"
  RPN:
    HEAD_NAME: "DepthwiseSepRPNHead" # Normal RPN Head "StandardRPNHead"
    IN_FEATURES: ["P_4", "P_8", "P_16", "P_32"]
…
